TissueClassifier_CRC100K/models/ann_crc100k_upscale_conch15.pth (torch, 813520 bytes, 6 tensors)

weight f4 [224, 768]
00000000: 7523 6a3b 739e 413a 3afa 16bc 2db7 553b
00000010: a603 50bc 593c a03b a4ac 3d3a 726e dabb
00000020: 6965 c13b 0671 2ebb b8ec 8dbb 73ad b7bb
00000030: f4b4 943b fcbb e4ba 8b92 7c3b 4a0b e0ba
00000040: cd5b 85bb a203 6fbb e301 56bc 512e d73a
00000050: eddc 023b 017c ee3a 9224 0a3c 5510 11ba
00000060: f24d c7ba 9577 5cbb b916 d83a 44c5 e03b
00000070: 0794 af3a 5b09 14bc 0194 50bc e32b 193c
00000080: 0251 a5ba 3029 a23b 7c1f 933b eef8 ea3a
00000090: 5971 cabb 903a 683b 4761 11bb 21fd f23a
000000a0: c823 8abb ec9e 0f3b 436b 1dbb cc9b a9b8
000000b0: 29e2 313b 16e2 453b 8edf 383b 1408 c3ba
000000c0: 76fa 123c c9a8 513b 8e1a 3ebb c499 893b
000000d0: ab58 c73b 3a36 543b dd15 1fbc bed3 56bb
000000e0: cb00 043c b3e0 2dbb fc7f 4f3b 8207 20bb
000000f0: d07f 00bb fa77 08bc ead8 9cbb 22af c3bb
00000100: 1f8c c7bb 4c35 d4b9 a371 c43b 0ca4 17bb
00000110: aeeb d3ba 85d7 3c3b 0acd 8b3b b6ca 65bb
00000120: 64f9 71bc 2b39 abbb e36c 63bb a264 e5bb
00000130: a1c4 dcbb 3828 0dbc 09c8 c73b 0370 cfbb
00000140: 04a8 eb3b f0b4 9a3b 6cfa 24bb ed7e 2c3a
00000150: fc61 f53a 1229 843b 04ac 28ba 3332 db3b
00000160: a7d3 d8b9 bca3 153b 1db9 123c 8b11 1a3c
00000170: d348 bc3a 076d c3bb 5306 1bbb 7f53 25bb
00000180: 2781 4bbc ec2d 523b cc74 b63a 40df fdbb
00000190: b188 60bc 61cb 89ba 7691 b23b 2678 94bb
000001a0: 924f 2c3c e30b d5bb 7bd8 7b3b 03c1 fcbb
000001b0: 4d79 cbbb cc0b 8f3c f658 ba3a 5563 52bb
000001c0: ec3a 773b b676 50ba 2a31 44bb b3a8 b03c
000001d0: d1fd fcba 0bb2 ac3b 8a7a 84bb 4a5e 673b
000001e0: 6dfb 413b b96f 14bb 1598 efb9 26ee 1d3b
000001f0: e5e8 1cbb 321d c4bb a4c1 cf3b dc43 3fbb
00000200: cbfe 5ab8 fa6f dbba 391d 613a 2d51 f7b9
00000210: 7a7a 533b 7990 77ba a420 163b 5323 c4bb
00000220: 20cd 56bc baa4 b43b efaf e03a 054f b33b
00000230: eb8e 353a 013e 02bb ab24 dfbb 3e4f a2ba
00000240: 1a76 2bbb 2f45 36b9 2aed 4f3a 674d 6e3a
00000250: 410c 80b8 c8d7 cdbb 85f1 193c a963 b4bb
00000260: 5997 2cbb 3c06 86bb b7f6 ee3a b40e 84bb
00000270: e58c 8f3b 0326 663a 6e72 913b 883f e0b9
00000280: 7151 d5bb 399b 0fba fac4 193c f9f6 013b
00000290: 62b9 37bb e35f a7bb 7c7f 7e39 aa14 b3bb
000002a0: 8c2f 01bb 8e51 24ba 182b 943a eb33 f23b
000002b0: 3049 d0bb 844c 2e3b 2341 ceba 07a0 87ba
000002c0: 264b 9a3b 5ec6 59bb eb57 f0bb 0c04 1f3c
000002d0: 41c9 b43a 8cc1 003b b52a 8a3b a24d 96ba
000002e0: 89d7 a03a 0215 a2ba 7769 13bc 20de 0c3b
000002f0: d30f fc3b 12a1 d63b 2ab2 ed3a 1c09 87ba
00000300: cf7a 8dbb c98b 293c 8fa5 273c 1050 503b
00000310: 285d fabb e7b6 afbb 6825 9f3b 90a2 e63a
00000320: d57e 463c c857 18bc 58aa 1c3b 29ea 9f3b
00000330: 3a0a 07bb 597f 5b3b 24d0 f3ba 65ed bb3a
00000340: 8311 59bb 2335 163a fbf5 a7ba 2619 123b
00000350: 04d1 833b 916e 49bb 5e45 29bb d6d2 5439
00000360: 3379 1abb 42f7 133b c6a5 2abc 0f38 c3bb
00000370: cb6c b13b 9a3d c9bb bac0 93bb b39f 84bb
00000380: 32e4 c23a b521 543a 38e4 5dbb bda4 c6ba
00000390: 65e3 933b a412 aebb d790 0cbb 7aaf 8b3b
000003a0: e7ac 243b cd99 22bc adec bc3b 9f31 c43a
000003b0: 8efd 753b 54a6 38bb d4af b6ba b363 be3a
000003c0: 37cb 10bb 6ed6 22ba 767b 2eba e4e2 86ba
000003d0: 2022 1c3b 95b9 cebb ad3b 0ebc 3a98 a33b
000003e0: b74d 56b9 a39a 0d3b 394c 2abc 5c49 22bb
000003f0: de4d 233c 86f2 193c 01ff 02bc bcd4 3bbb
0.00357267 0.00073859765 -0.009214932 0.0032610402 -0.012696182 0.0048900065 0.0007235503 -0.006665998
0.0059019816 -0.002661766 -0.0043311976 -0.0056053936 0.004538173 -0.0017451043 0.0038539495 -0.0017093208
-0.0040697814 -0.0036470671 -0.013061973 0.0016417002 0.0019968108 0.0018194915 0.008431571 -0.00055337447
-0.0015205725 -0.0033640612 0.0016486264 0.0068594534 0.0013395556 -0.009035434 -0.012730599 0.009348842
-0.0012612643 0.0049487576 0.004489837 0.001792697 -0.006178063 0.0035435297 -0.0022183226 0.0018538573
-0.0042156912 0.0021914793 -0.0024020232 -8.0875674e-05 0.0027142859 0.0030194572 0.002820942 -0.0014879727
0.008970847 0.0031991473 -0.0029007527 0.0041992385 0.006083568 0.0032380954 -0.009709802 -0.0032780017
0.00805683 -0.0026531636 0.0031661978 -0.0024418538 -0.0019607432 -0.008329386 -0.0047866004 -0.005971805
-0.006089702 -0.000404755 0.005994992 -0.002313855 -0.001616826 0.0028814983 0.004266386 -0.0035063452
-0.014768932 -0.005225321 -0.0034702353 -0.0070005218 -0.006737307 -0.008615546 0.006096844 -0.0063304915
0.00719166 0.0047212765 -0.0025173677 0.0006580193 0.0018721218 0.0040332163 -0.0006434324 0.006689334
-0.00041356424 0.002283319 0.008955267 0.009403597 0.0014364965 -0.005963925 -0.0023654893 -0.002522677
-0.012420929 0.0032070829 0.0013920306 -0.0077475607 -0.013704465 -0.0010512882 0.005449469 -0.0045309244
0.010517018 -0.006501661 0.0038428593 -0.0077134385 -0.0062095285 0.01746168 0.0014217186 -0.0032102664
0.003772433 -0.00079522596 -0.002993653 0.021564817 -0.0019301717 0.005270248 -0.004042928 0.0035304003
0.0029599324 -0.00226496 -0.00045698942 0.0024098246 -0.0023942527 -0.0059849257 0.0063402224 -0.0029184734
-5.2212545e-05 -0.0016741746 0.00085874234 -0.00047171992 0.0032269047 -0.00094438303 0.002290764 -0.0059856563
-0.013110429 0.005512801 0.0017142276 0.0054720663 0.00069258985 -0.0019873383 -0.006809791 -0.0012383235
-0.0026162923 -0.00017382645 0.00079317635 0.00090905133 -6.105798e-05 -0.0062818266 0.009395962 -0.0055050445
-0.0026335327 -0.0040900987 0.0018231486 -0.004030073 0.0043808096 0.0008779468 0.00443869 -0.00042771944
-0.0065099527 -0.0005478147 0.009385342 0.0019831045 -0.002803408 -0.005107866 0.00024270819 -0.00546511
-0.0019712178 -0.0006268256 0.0011304347 0.007391443 -0.006356381 0.00265959 -0.0015735965 -0.0010347374
0.0047086654 -0.0033229808 -0.0073346994 0.009705555 0.0013792888 0.0019646613 0.004216517 -0.0011467228
0.0012271266 -0.001236588 -0.008997313 0.0021494702 0.007692316 0.006549963 0.0018134762 -0.0010302397
-0.0043176184 0.010348269 0.010232343 0.0031786002 -0.0076404996 -0.00536238 0.004856754 0.0017596055
0.0121152 -0.009298272 0.0023905244 0.004880209 -0.002060546 0.0033492653 -0.001860146 0.0014337717
-0.003312201 0.0005729964 -0.0012814397 0.0022292822 0.0040227193 -0.0030736069 -0.00258287 0.00020296438
-0.0023570776 0.0022577797 -0.0104155 -0.0059576104 0.0054145805 -0.0061413767 -0.004509059 -0.004047358
0.0014869033 0.0008092181 -0.0033857953 -0.0015155297 0.0045131915 -0.0053122807 -0.0021448636 0.004262862
0.0025127472 -0.009924364 0.0057655186 0.0014968402 0.0037535164 -0.002817531 -0.0013937899 0.0014525562
-0.0022093782 -0.0006211762 -0.00066559704 -0.0010291007 0.002382405 -0.006308744 -0.00868122 0.004992512
-0.00020437581 0.0021607063 -0.010394149 -0.0024762964 0.009967295 0.009396201 -0.007995368 -0.0028660735

bias f4 [224]
00000000: 6725 b4b6 e768 9ab5 dd02 fab8 fc45 c8b8
00000010: 7ab1 1337 1c5c 0836 c57f 4637 ee2c 81b6
00000020: b174 a5b7 7033 d9b7 8fae ab37 2671 e137
00000030: e86a 59b7 fdad a038 ed6d 47b8 8022 9db8
00000040: 3801 c037 e1fb 94b7 dd45 abb6 f53f 07b7
00000050: 27c3 0d38 8b2d d3b7 ce03 88b6 0dd4 4037
00000060: a258 5437 a968 bb38 cb7f 6537 e9fa c137
00000070: bed8 c237 d403 ae38 5a3e f437 1a22 1636
00000080: d5e2 adb5 5285 b3b8 d71c 55b8 3a4e f136
00000090: af9d 0137 ab06 9536 ae37 12b6 6d4e c2b7
000000a0: c090 38b8 100e d237 ee03 34b8 0109 b337
000000b0: c956 45b8 3e57 7fb7 8b7c 32b7 2c7a 0336
000000c0: 55b0 7237 befa b6b7 3f52 31b4 cb60 2db8
000000d0: 7ccf 25b7 bcdd 8c37 3f6a 9737 dddf 0c37
000000e0: 6ec9 4034 15ad 5eb7 4e91 b336 e97e 2638
000000f0: 7136 95b6 0525 4a38 a2f0 a9b7 198b 9ab6
00000100: 94cc 9637 33a9 81b7 41a0 4b38 167a 6fb8
00000110: da78 5db6 2162 6e37 c7d1 c1b7 bf9b bc35
00000120: 919a 13b6 8c3a 9a37 4006 9238 20dc fe37
00000130: 575c b137 ec33 7535 16f7 34b6 ac22 c637
00000140: 551b 55b3 95ce 2438 582e 8b36 bb9a 9f37
00000150: 553d b037 c187 9b37 84d5 3737 9547 e737
00000160: 2a0b a0b7 9260 2236 e827 b838 ed1e 3fb5
00000170: ee26 92b6 be31 8fb8 166d 97b7 8121 9c36
00000180: 6363 dab6 7ede 5db5 5ad8 4236 b3d3 93b7
00000190: 9439 ef37 50aa 3f36 fd92 a7b5 8503 05b8
000001a0: 7175 b6b6 ba08 10b6 fe12 7e38 222e fd36
000001b0: 3a33 a7b8 0650 c7b8 61a3 3c36 b4dc 91b7
000001c0: de71 a9b7 4204 de37 9ac3 e137 facb f4b6
000001d0: cd60 d337 0ae5 bfb7 ed4d eb35 b47f c838
000001e0: e81c 5f37 a3e6 09b6 8465 7038 390e 14b7
000001f0: b0dd 5738 fab9 16b4 e002 22b7 5ae7 37b8
00000200: 6d0b d337 627c 2937 e081 0337 df5a 0fb8
00000210: d6ec a037 a0a9 bd37 18cf 2f36 7c20 dfb8
00000220: 2610 7b37 c86a 0fb7 dc95 be37 2ca0 18b8
00000230: 0049 84b8 b6c9 1db7 500c dab7 e405 b537
00000240: cba9 7337 964c 4cb8 c829 1cb8 6c38 a7b4
00000250: bbb4 8a38 8792 2db6 52c9 f237 5c21 7bb7
00000260: 3212 96b8 6e39 d2b7 fddb b4b7 ddc3 e0b7
00000270: 14cf 9135 b81a 14b8 ec8a 7037 eee9 3539
00000280: 80a0 bc37 cfe1 f337 88bd eb35 4bb3 20b6
00000290: 71c8 20b7 2e6e 81b7 6c15 f936 9fb4 5537
000002a0: c8c5 49b6 360d 1cb8 582a 0739 4863 a6b6
000002b0: be2a c0b6 d94b 89b5 6106 06b6 38f9 c3b6
000002c0: 72c5 43b7 3f81 32b7 a64a ca37 cfb4 50b6
000002d0: 77bb 2937 df7a 4037 566a d1b7 cc43 b8b7
000002e0: f545 1d37 2aeb 50b6 defc 1eb7 27f7 7f37
000002f0: 2e26 8737 0588 b635 5219 c337 cd18 c1b7
00000300: 7cd6 0cb8 0991 3e36 7967 a1b7 3380 8fb6
00000310: ff65 3db7 6235 12b8 7488 3db4 268f c3b8
00000320: 5ffc c936 ceb9 8db3 8bba 75b8 f2fb 1038
00000330: f411 bcb6 e123 56b5 3b82 3b38 5749 7338
00000340: 2d34 38b6 cc18 6e37 1e08 9e35 b93f c938
00000350: 420a 66b5 3bf1 fb35 278d ea34 be9e cfb7
00000360: e44e b9b6 ea95 9135 489c f1b6 7cb1 07b8
00000370: 77a8 3336 4999 42b7 4385 07b8 02b6 2938
-5.3687722e-06 -1.1504425e-06 -0.00011921462 -9.549779e-05 8.803205e-06 2.0319194e-06 1.1831468e-05 -3.84973e-06
-1.9723871e-05 -2.5892368e-05 2.0466074e-05 2.6874779e-05 -1.2959099e-05 7.6618024e-05 -4.7547674e-05 -7.4927695e-05
2.2888751e-05 -1.7760265e-05 -5.1043303e-06 -8.061518e-06 3.379877e-05 -2.5174368e-05 -4.0535588e-06 1.1493464e-05
1.2656821e-05 8.936349e-05 1.3679218e-05 2.3124232e-05 2.322753e-05 8.2976796e-05 2.9116101e-05 2.2371592e-06
-1.2955521e-06 -8.560218e-05 -5.0810017e-05 7.1914665e-06 7.725713e-06 4.4413223e-06 -2.1788105e-06 -2.3163122e-05
-4.4003827e-05 2.50405e-05 -4.2919004e-05 2.1342656e-05 -4.7049285e-05 -1.5219497e-05 -1.0638624e-05 1.9591635e-06
1.44653795e-05 -2.1812852e-05 -1.651433e-07 -4.133656e-05 -9.883075e-06 1.6792554e-05 1.8050077e-05 8.3967725e-06
1.7954673e-07 -1.327253e-05 5.3515314e-06 3.969568e-05 -4.446884e-06 4.819503e-05 -2.0258423e-05 -4.6057507e-06
1.7976658e-05 -1.5456788e-05 4.854822e-05 -5.709574e-05 -3.300191e-06 1.4208753e-05 -2.3105078e-05 1.405242e-06
-2.1994676e-06 1.8385494e-05 6.962987e-05 3.0381663e-05 2.1143043e-05 9.134517e-07 -2.6965913e-06 2.3619585e-05
-4.9617785e-08 3.929304e-05 4.147918e-06 1.9026329e-05 2.1009395e-05 1.8540655e-05 1.0957363e-05 2.7570679e-05
-1.9078685e-05 2.4196092e-06 8.781237e-05 -7.119805e-07 -4.355671e-06 -6.8280366e-05 -1.80514e-05 4.6530627e-06
-6.5084764e-06 -8.2652684e-07 2.9034186e-06 -1.7622346e-05 2.8517832e-05 2.8560353e-06 -1.2485249e-06 -3.171295e-05
-5.4376947e-06 -2.1462752e-06 6.0576007e-05 7.545358e-06 -7.972722e-05 -9.503965e-05 2.8109282e-06 -1.738812e-05
-2.0199393e-05 2.6466445e-05 2.6913174e-05 -7.2955127e-06 2.5198236e-05 -2.2875629e-05 1.7531544e-06 9.56053e-05
1.3298566e-05 -2.054884e-06 5.7315003e-05 -8.824799e-06 5.1466457e-05 -1.4037496e-07 -9.656622e-06 -4.3846063e-05
2.515848e-05 1.0102145e-05 7.838447e-06 -3.4178487e-05 1.9183772e-05 2.2609544e-05 2.6197577e-06 -0.00010639519
1.4964526e-05 -8.548326e-06 2.2719549e-05 -3.6388796e-05 -6.307848e-05 -9.404894e-06 -2.5993359e-05 2.1579624e-05
1.4523462e-05 -4.8708716e-05 -3.723221e-05 -3.1147226e-07 6.6140165e-05 -2.58643e-06 2.8942395e-05 -1.4968533e-05
-7.1559465e-05 -2.5060694e-05 -2.1560112e-05 -2.6794087e-05 1.086361e-06 -3.5310833e-05 1.433746e-05 0.0001734865
2.2486085e-05 2.9073008e-05 1.7564025e-06 -2.394622e-06 -9.583412e-06 -1.5429305e-05 7.423272e-06 1.27378435e-05
-3.0066458e-06 -3.7205602e-05 0.00012890378 -4.9587434e-06 -5.7270217e-06 -1.022937e-06 -1.997127e-06 -5.8404657e-06
-1.1668877e-05 -1.0639719e-05 2.4115037e-05 -3.109966e-06 1.01168325e-05 1.14727e-05 -2.4964258e-05 -2.196608e-05
9.374217e-06 -3.1131299e-06 -9.476409e-06 1.5256729e-05 1.6111033e-05 1.3599644e-06 2.3257602e-05 -2.3018942e-05
-3.3578355e-05 2.8396628e-06 -1.9240879e-05 -4.2766565e-06 -1.1289026e-05 -3.485883e-05 -1.7651638e-07 -9.324988e-05
6.0196467e-06 -6.599622e-08 -5.8586284e-05 3.4566918e-05 -5.6049266e-06 -7.9773423e-07 4.470556e-05 5.8004018e-05
-2.7448507e-06 1.4191679e-05 1.177428e-06 9.596296e-05 -8.5696604e-07 1.8771165e-06 4.3688598e-07 -2.4750243e-05
-5.5226137e-06 1.0846973e-06 -7.2005532e-06 -3.2351803e-05 2.6771138e-06 -1.1598991e-05 -3.2310618e-05 4.0462248e-05

weight f4 [128, 224]
00000000: 67f6 a03c f290 7fb4 91fd fd3b 8001 bcbb
00000010: 0764 a9bb af92 acba 9936 78bb c456 763c
00000020: df79 f1bb 0bd0 aa3c caab 4ebc 849b 953b
00000030: 0079 973c 0640 a93c 5354 a83c f1ee aabb
00000040: c1f6 073c e740 0cba 4864 323c c44e 5cbc
00000050: cf17 cc3c 134f 613a 4f58 b3bb 6061 f1bb
00000060: 5c53 e13a dee4 cd3c 8ce3 1dbc 423e 343c
00000070: 8807 9d3b c28c cdbb d79c e739 1fcb 673b
00000080: cf4b ba3c 2a25 833c 4c12 8932 d5ff 0e3b
00000090: 97bb 94bc ec16 7a3c c139 a9bb 5a42 e73c
000000a0: 8c02 c43b 357a 963c e6c6 9cbc 9b2e c1bc
000000b0: f582 723b c8f3 99bc 518c 05bc 6b8c 3f3c
000000c0: ae07 b83c d612 32bc 98fd c83c 25d4 e3bb
000000d0: e277 a53c e72d 973c 4ea6 96bb 6ef7 b33c
000000e0: f975 3031 2740 b93c 96d5 d0bb faea 803c
000000f0: 8f70 d7bb 6c26 41bc 5d3a ba3c be96 fbbb
00000100: 9a0a cfbc 1e7e 45bb cc96 113d 7684 67bc
00000110: 0b04 31bc 3351 ee3b b5cb d33c 8174 78bc
00000120: 73d3 a1bb e877 f9bb c263 a23b efa2 313c
00000130: 410b 7e3c 44fd a8bb 18e7 60b2 247a b8bb
00000140: 06eb 4ebc c4ec 0abc 05de 8b3c f212 6abc
00000150: be6d aa3c c0d7 78bb a812 17bb dcd7 18b6
00000160: 68fa 3fbc f919 8138 0b60 f93b cd50 0fb5
00000170: 76af 6f3b 5a9e 553c 1014 793c 456f 883c
00000180: 2772 173c bad9 863c 91d2 7fbc a0aa 213b
00000190: 1550 863c 8f38 50ba d1d3 a43c 4731 9abc
000001a0: 7d48 eb3a b480 ac3c c820 b83c 4983 5b3c
000001b0: 3d50 24bc 3f47 3abb ce88 d33c cd0d 74bc
000001c0: f8f3 313b 555d 3abc 626b 2cbc 4f70 d83c
000001d0: 3e51 b1bb c17b a4bb f336 833b 38dc 923c
000001e0: cb6c 62bc 202b a7bc 9b88 aa3c 24a9 cbbb
000001f0: 1b95 7f3c b8cb 38b8 5888 ae35 0942 043b
00000200: c7f4 873b 39bd 9db9 e0bc ad3c b184 b13c
00000210: 0307 c4bb 818f 693c e697 a7b5 6106 03bc
00000220: ac1f d03c 7159 513c 6be4 da3c 0cb5 8c3c
00000230: 2de5 79bb 7fc5 84bb 93c2 46bb 90be b83c
00000240: eb20 613c 4bb5 983c 5e02 dabb a313 57bc
00000250: 798b e33c 48cf ecba 0230 b93b d011 c9bb
00000260: a05c 04bc ce58 9e3c b8c6 8cbb cfdd 41bc
00000270: 6f2b ee3b 51f4 c5bb 72ab 8db9 cb75 19bc
00000280: 3709 063c 3314 803c 41e9 443c 86b5 893a
00000290: aa53 663b ef0e 0a38 61c5 ac3b 07b4 59bc
000002a0: 0138 01b8 35a3 89b6 de80 2e3c a2a9 edb6
000002b0: 44fd d3bb 9b27 a8bc 0c05 7a3c 067a d43b
000002c0: 12d0 98bc f79a 32bc ba01 353b e381 0eb8
000002d0: faaf ac3b 6ca8 c83b 5bab b63c 64a9 4bba
000002e0: b877 e93c d5bd 313c e3d6 8f3c 67f0 3dbc
000002f0: 471a f03a 365f 5abc bc78 7d3b db79 043d
00000300: b047 683c 7937 9e3c 0720 b63c 6402 093c
00000310: 9e70 23bc 93ae d4bb 7f23 623b aca4 67bc
00000320: 4166 41bc aac4 bc39 d7d6 b73b 4c6d 8f3c
00000330: 4570 693c adef 0cba b263 493c 313d 04bc
00000340: 7131 8b3c 54bd cdba a83a f13b 4b07 54bb
00000350: 55e3 97bb 4439 abbb 138b bcbb 2f6f 8fbb
00000360: f7d2 883c 0846 5f3b 5b44 373c c7dc 93bb
00000370: 464e 3b3c adc9 afbb 3ab3 d73c c891 ef3a
00000380: 9d85 cdbb 1c66 a9b2 4209 c3bb 802f 0cbb
00000390: 9db9 a23c 9d95 10bc c32f 8d3c d38f d13b
000003a0: 617e b8bb 2924 76bb 5e3a 8b3c 5a64 4bba
000003b0: bba3 543b a664 67bb e7ff 13bc f394 54bb
000003c0: ca82 2abc 2703 6aba 6473 e3bb 5cc2 aabb
000003d0: f139 ddbb 4de8 5eba 1881 0fbb 7316 afbb
000003e0: fa66 3a3c e914 9dbb f7e9 bd3c 2855 d83b
000003f0: 2587 4abb b419 0c3c d9e6 903c 8fa6 96ba
0.019648744 -2.3801456e-07 0.0077511747 -0.0057374835 -0.005169395 -0.0013166274 -0.003787434 0.015035335
-0.0073692645 0.020851156 -0.0126142 0.004565658 0.018490314 0.020660412 0.020548021 -0.0052164723
0.008298577 -0.00053502474 0.010888167 -0.013446514 0.024913697 0.0008594852 -0.0054731737 -0.0073663443
0.0017190981 0.025133546 -0.009636771 0.011001172 0.0047921576 -0.006272883 0.00044176608 0.0035368872
0.022741226 0.016008932 1.595722e-08 0.0021819968 -0.018155856 0.015264254 -0.0051643555 0.028229881
0.005981749 0.01836882 -0.01913781 -0.023581794 0.0037004326 -0.018793002 -0.00815113 0.011691193
0.0224646 -0.010868749 0.024534985 -0.00695278 0.020198766 0.018454505 -0.004597462 0.02196857
2.567843e-09 0.022613598 -0.0063731177 0.015737046 -0.0065746973 -0.011788946 0.022732908 -0.007677882
-0.02527361 -0.0030134986 0.0355442 -0.014130702 -0.010804187 0.0072728633 0.025853971 -0.015164495
-0.004938537 -0.007613171 0.0049557397 0.010842069 0.015505613 -0.0051571447 -1.3091061e-08 -0.0056297947
-0.012629276 -0.008479301 0.01707364 -0.0142867435 0.020804282 -0.0037970394 -0.0023051891 -2.2775412e-06
-0.011717416 6.156037e-05 0.007610326 -5.338923e-07 0.0036573089 0.013038242 0.015202537 0.01665462
0.009243525 0.016461242 -0.015614168 0.002466835 0.016395608 -0.0007942998 0.020120533 -0.018822325
0.001795068 0.021057464 0.022476569 0.013398 -0.010028896 -0.0028423814 0.02582207 -0.0148958685
0.0027153473 -0.011374791 -0.010523649 0.02642074 -0.005411296 -0.0050196354 0.004004353 0.017927274
-0.013819884 -0.020406306 0.020817092 -0.0062152315 0.015599514 -4.4058746e-05 1.3003691e-06 0.0020180962
0.004149053 -0.00030086355 0.021208227 0.021669718 -0.005982281 0.014255405 -1.2486678e-06 -0.007997126
0.025405727 0.012777672 0.026720246 0.017176174 -0.0038130984 -0.0040518637 -0.0030328378 0.022551805
0.013740758 0.018641135 -0.006653114 -0.01312724 0.027776467 -0.0018067146 0.005651475 -0.0061361566
-0.008078724 0.019329455 -0.00429615 -0.011832668 0.0072683613 -0.0060410877 -0.00027021352 -0.009366463
0.008180908 0.015634632 0.012018503 0.0010506369 0.0035145083 3.2915672e-05 0.005272553 -0.013287551
-3.0808154e-05 -4.101918e-06 0.0106508415 -7.0828983e-06 -0.0064694006 -0.020526698 0.015259992 0.006484273
-0.018653903 -0.010901204 0.0027619437 -3.3976405e-05 0.0052700015 0.006123593 0.022298506 -0.00077690766
0.02849947 0.010848482 0.01755852 -0.011592961 0.0018318378 -0.013328364 0.00386767 0.032342773
0.014177248 0.01931356 0.022232069 0.008362386 -0.0099755805 -0.0064905374 0.003450602 -0.014138382
-0.011804164 0.0003600468 0.0056103277 0.017508171 0.014247959 -0.00053762906 0.012291836 -0.00807123
0.016991349 -0.0015696683 0.0073617287 -0.003235298 -0.0046352544 -0.0052253325 -0.0057538836 -0.004377268
0.016702158 0.0034068841 0.011185731 -0.0045124027 0.011432236 -0.005364618 0.02633058 0.0018277699
-0.0062720315 -1.9720623e-08 -0.0059520314 -0.0021390617 0.019863898 -0.008824733 0.017234689 0.006395319
-0.0056303 -0.0037558174 0.016995605 -0.0007758789 0.0032446224 -0.0035307794 -0.00903318 -0.0032437413
-0.010407159 -0.00089268613 -0.006941246 -0.0052111577 -0.006751292 -0.00085032434 -0.0021897014 -0.0053432523
0.011377091 -0.0047937525 0.023182852 0.0066019483 -0.0030903306 0.00855105 0.017688202 -0.001149373

bias f4 [128]
00000000: 3f60 8635 41ac 0439 e065 af36 9717 1fb6
00000010: e527 d638 cae2 0fb8 d8f9 83b7 6a72 a537
00000020: e4e9 5438 6712 83b8 9e6b b1b7 1c96 6e37
00000030: bb0c bc38 cdd7 4d37 327e 85b8 d3c4 d6b7
00000040: db6e 72b7 667e c837 427b 70b7 ef5a 39b7
00000050: 6e3b 3d37 472a 76b7 e83d 0637 c01f 7c38
00000060: 2c88 0a39 133d 8fb6 0ee6 d7b7 265b ea38
00000070: 4e64 83b5 a239 f236 4cd8 58b6 7f47 c138
00000080: 6b73 9ab7 ec0f 3cb8 7d67 ceb6 9ad7 44b7
00000090: aa61 3c37 0c01 bfb7 c176 85b5 4872 21b7
000000a0: cd2a e7b5 e096 ca36 eb2b 2bb8 aaa1 b836
000000b0: d186 03b7 7c3e 0a38 eb76 97b7 d78d fbb6
000000c0: 8654 27b6 2b72 2f37 5986 8e37 4d5a 2fb8
000000d0: dd2e 10b7 e411 cbb7 7dd9 a837 7a5a abb7
000000e0: ab15 fdb6 42f9 2a37 b27c 12b7 503d 8eb7
000000f0: c9b4 7bb5 47bd 0d36 de43 06b8 2773 7f37
00000100: e9c4 8835 3b22 7d38 a56b b036 8beb ca38
00000110: c2f3 3038 06f3 2438 0daf 9036 74c2 12b8
00000120: 2fb4 d237 a1bf b3b7 93a2 8db8 f008 bcb5
00000130: 9586 be38 8f3a 9137 cc1d 7b36 9e03 95b8
00000140: 562d ba36 3626 3eb7 b166 eeb6 1d69 64b7
00000150: e4b7 0538 412a 14b7 5a18 b1b7 59f4 1d38
00000160: 84c0 e336 c8e1 0037 6a54 8b36 01c3 1637
00000170: 7686 fb37 17fd 05b6 aae7 a9b8 046e a7b6
00000180: 42fa 8637 504b e7b7 acd6 32b7 2425 a737
00000190: 2465 0038 f0b8 4439 1700 1d38 2324 e6b7
000001a0: 61a6 06b9 3bf2 e537 a375 c434 765b 9cb7
000001b0: d765 9c38 9bd5 beb6 50bc c936 da7e c2b6
000001c0: 854a aeb7 fa6a 8c38 eef9 52b8 48ee a337
000001d0: 3f3a 3db7 82ba 03b6 5f1b 6137 163e c5b6
000001e0: 2a83 bcb6 4763 8137 f84e fbb6 dedb 9db7
000001f0: d8f8 0137 66ea 2d36 0a15 2435 bb90 0eb6
1.0011789e-06 0.0001265267 5.2272662e-06 -2.3706577e-06 0.00010211746 -3.430507e-05 -1.573276e-05 1.9722811e-05
5.0762566e-05 -6.2499945e-05 -2.1150157e-05 1.42208555e-05 8.96691e-05 1.2269197e-05 -6.36544e-05 -2.5602441e-05
-1.4450135e-05 2.3900717e-05 -1.4333813e-05 -1.1048031e-05 1.1279115e-05 -1.4672586e-05 8.001436e-06 6.011105e-05
0.00013211434 -4.268842e-06 -2.5737125e-05 0.00011174967 -9.789453e-07 7.2188714e-06 -3.231241e-06 9.216274e-05
-1.8411976e-05 -4.483752e-05 -6.151326e-06 -1.1732709e-05 1.1228412e-05 -2.2769462e-05 -9.943834e-07 -9.622956e-06
-1.7223298e-06 6.0376333e-06 -4.081048e-05 5.5024475e-06 -7.839598e-06 3.2959957e-05 -1.8055978e-05 -7.4968953e-06
-2.4934138e-06 1.0457395e-05 1.699028e-05 -4.180735e-05 -8.59398e-06 -2.4207817e-05 2.0128437e-05 -2.042692e-05
-7.54251e-06 1.01908245e-05 -8.731311e-06 -1.695627e-05 -9.3767864e-07 2.1120811e-06 -3.2011296e-05 1.5225995e-05
1.0190098e-06 6.035178e-05 5.25774e-06 9.675984e-05 4.2188687e-05 3.932698e-05 4.311913e-06 -3.499021e-05
2.5117855e-05 -2.1427697e-05 -6.753686e-05 -1.4009693e-06 9.084974e-05 1.7312615e-05 3.7419259e-06 -7.1055474e-05
5.5485098e-06 -1.1333779e-05 -7.1049076e-06 -1.3614333e-05 3.1880933e-05 -8.831325e-06 -2.1111384e-05 3.7659283e-05
6.787539e-06 7.681963e-06 4.15235e-06 8.9861e-06 2.9984145e-05 -1.9965862e-06 -8.101699e-05 -4.9897953e-06
1.609058e-05 -2.7572416e-05 -1.0659609e-05 1.9925246e-05 3.0611773e-05 0.00018760911 3.74318e-05 -2.7434964e-05
-0.00012841217 2.7411725e-05 3.6593437e-07 -1.8639239e-05 7.457629e-05 -5.687308e-06 6.0121893e-06 -5.796418e-06
-2.0777117e-05 6.695646e-05 -5.0300667e-05 1.9542073e-05 -1.1278839e-05 -1.9629083e-06 1.3417418e-05 -5.8782853e-06
-5.618106e-06 1.5424228e-05 -7.489576e-06 -1.8818242e-05 7.746938e-06 2.5915447e-06 6.1125377e-07 -2.1243893e-06

weight f4 [9, 128]
00000000: c7db 553d 08e3 b8bc 43b2 a03d 6fcf 17bd
00000010: fa2d 8a3d 8455 bfbd caf6 ce3d f179 8dbd
00000020: 0f27 5dbd e011 803b 5d65 a23c 675b a1bd
00000030: bef7 a33d f453 92bd ca4d 053d 0eba 22bd
00000040: 301a 3cbd c790 793d 168e 6a3c 0473 e03d
00000050: 3618 203d f1b2 823d 3ec3 60bd 471f adbd
00000060: 502a 02bd b73b b7bb 1eed 7cbd 7e2f cb3d
00000070: 5eff aabb 29e2 abba b48b 023d cb89 633d
00000080: 2e72 d2bd a1d0 d5bd edc3 b8bd 2fa3 a53c
00000090: fca3 d2bc 9dd9 063e 9411 c23c 42f3 1d3d
000000a0: b276 013e 8708 d33d 6f3f a9bd 3cd5 64bd
000000b0: 2d12 893d 2841 f4bc a5b2 8fbd 975c ba3d
000000c0: dd1c b73d df91 b23d 82f8 d83d 84d6 5cbd
000000d0: 5e41 80bd eba1 0cbe bdc7 0b3d a5db 0c3d
000000e0: 7da4 96bd 98bb 97bd 777b 62bc 60c5 9b3d
000000f0: f42c d83d 00ce 963d 93d7 b63d 69a0 81bd
00000100: f654 a3bd 51b6 06bd f724 5ebd a151 b6bd
00000110: ffa4 8abd 7b70 903d 717a 783d 236e 8fbd
00000120: 17aa e33d db67 aebd 7711 a2bd 21a8 ce3d
00000130: deaa 15bd 9dce 9fbd b3e8 c23d 9401 2ebd
00000140: 22d8 d73d 1a1a a23c c58a 86bd e5a0 d63d
00000150: 1841 b8bd 5225 353d f18e 91bd c467 8ebd
00000160: f0a3 8d3c 719f 92bd 68f3 80bd a7e2 83bd
00000170: dfc5 7ebd ff64 843d 5106 ddbd 1c14 80bd
00000180: d32b 963d 98c6 9a3c 8bed 8c3d 1531 4c3d
00000190: 5141 463d 6a15 bdbd 9159 9dbd 50ac e23c
000001a0: d4c4 993d a172 15bd e81c 97bd 600d 42bd
000001b0: b9be c33d 7369 103e 0ff8 6a3c 4fb1 9fbd
000001c0: 8275 e23d 6fd0 8f3c 3b65 8bbd a9cb a4bd
000001d0: 3a03 6fbd 6c18 28bd 2f33 cd3d d313 6a3d
000001e0: 7e52 c6bd 9e51 0cbb 58e2 85bd c98e a63d
000001f0: 0127 343d 5bc0 043e cb82 7cbd 2195 a1bd
00000200: 9457 4fbd f5b9 4dbc 50e9 3ebd f123 82bc
00000210: 4ea9 c33c f800 923d a309 ad3d d57a c33d
00000220: dafa e43c 428c 4abd ae13 98bd 5b7a 9b3d
00000230: 9892 4ebd 3ec7 c13d 1fe0 3abd 5b71 c63d
00000240: 87db e1bc fb28 acbd 3d56 943d 5bdd e13d
00000250: ea3c 90bd 1355 25bd 26b1 b03d a3d2 89bd
00000260: 26c9 3bbd 3af5 d63d 9f59 0ebd 2dc5 2fbd
00000270: dede 31bd 9962 f3bc 36b1 6f3d 50c4 8abd
00000280: 716e 78bd 8630 1ebd d1d7 86bd 31b5 a0bd
00000290: ba16 853d f15a 6cbd 3dac 36bd b926 5dbd
000002a0: ee1b ed3d 0b9d 67bd be68 8bbd 68ec 033e
000002b0: 51a2 37bd e8be 4d3d b4af cb3d ff53 b03d
000002c0: 115b 38bd ab24 03bd 0df6 d63d 79ae 16bd
000002d0: 65f0 22bd 0730 a7bd 240e 38bd f61a 5bbd
000002e0: c0ae 8ebd 7241 b73d e397 65bd 53c9 dc3d
000002f0: f442 7cbd 4c03 35bd b885 59bd 4982 de3d
00000300: 491f 60bd b0f2 08bd ce73 983d 4a6f 07bd
00000310: 7e0c a5bd 34f1 33bd 23b1 343d 4e2b c2bc
00000320: 518c ad3d a598 2e3d e45a 06bd 6771 60bd
00000330: b90e 913d 480b be3c 5add dc3d 8ee3 54bd
00000340: 9e61 4bbd 2662 61bd 932a 74bd 6a97 88bd
00000350: 0e74 53bd 54f6 1dbd a995 c13c a3e7 4bbd
00000360: 3395 47bd f2f3 62bd d054 58bd 3617 15bd
00000370: 1ec6 0bbd 7176 b13d a192 7dbd e8a5 4fbd
00000380: eac2 4cbd 8cf5 ea3d d4c4 b43d 4e55 f63d
00000390: a96c d23d 15d9 6cbd 78da b83d 22e2 653d
000003a0: be0d 89bd 96b8 dfbc 6359 0cbd abe2 2dbd
000003b0: 2429 c93d e271 ecbc 6e70 9cbb a024 efbc
000003c0: b002 0ebd 5c4c 25bd d09e 8c3d 7631 52bc
000003d0: 437a 2abd 3152 47bc c976 ee3d e42d b73d
000003e0: 1839 053d 989a 4fbd 90ca 42bd 26ea 46bd
000003f0: b395 b0bc b05e 0abc 8167 70bd f6ab 27bd
0.05221155 -0.022569194 0.07846501 -0.03706306 0.067470506 -0.09342483 0.10105665 -0.06908024
-0.053992327 0.003908381 0.019823724 -0.07878762 0.080062374 -0.07144919 0.03254489 -0.039728217
-0.04592341 0.060929086 0.0143161025 0.109594375 0.03908559 0.063817866 -0.054873697 -0.08453231
-0.031778634 -0.0055918354 -0.06174957 0.09921168 -0.0052184304 -0.0013113666 0.031871513 0.05555133
-0.10275684 -0.104401834 -0.09021745 0.020219414 -0.02571296 0.1316895 0.023690023 0.038562067
0.12642935 0.10304361 -0.08264052 -0.05586742 0.0669292 -0.029816225 -0.070164956 0.09099691
0.08941052 0.08719229 0.10594274 -0.053915516 -0.06262468 -0.13733642 0.034126032 0.034389157
-0.073555924 -0.074088275 -0.013823382 0.07606006 0.10555449 0.0736351 0.08927836 -0.06329424
-0.079751894 -0.032888714 -0.05423447 -0.08902288 -0.06769752 0.07052704 0.060663644 -0.07003429
0.111164264 -0.085159026 -0.079134874 0.10090662 -0.036539905 -0.0780308 0.0951704 -0.042481974
0.10539271 0.019787837 -0.06569437 0.10479907 -0.08996791 0.044225045 -0.07107342 -0.069533855
0.017290086 -0.07159317 -0.06296426 -0.06439715 -0.062200423 0.06464576 -0.107922204 -0.062538356
0.073325776 0.018893525 0.06881245 0.049851496 0.048402134 -0.092326 -0.07683099 0.027670056
0.07508245 -0.03648627 -0.0737856 -0.047376037 0.09557862 0.14102726 0.014341368 -0.07797491
0.11057569 0.017555444 -0.068064176 -0.080466576 -0.058352686 -0.041038916 0.10019528 0.057147812
-0.09683703 -0.0021410952 -0.06537312 0.08132703 0.04398251 0.12964003 -0.06164817 -0.07889772
-0.05062063 -0.012556543 -0.046609223 -0.015886279 0.023884442 0.07129091 0.08449104 0.09544913
0.027951647 -0.049450167 -0.074256286 0.07591697 -0.05043277 0.094618306 -0.045623895 0.096895896
-0.0275705 -0.08406254 0.07243011 0.11028548 -0.070428684 -0.040364336 0.086275384 -0.06729629
-0.045846127 0.10495992 -0.034753438 -0.04291265 -0.043425433 -0.029710101 0.05851861 -0.06775725
-0.0606522 -0.038620494 -0.065841325 -0.078470595 0.064984754 -0.057703916 -0.044597853 -0.053992007
0.11577593 -0.056546252 -0.06807087 0.1288315 -0.04483253 0.05023089 0.09945622 0.08609771
-0.045008723 -0.03201739 0.10496149 -0.036787484 -0.03978004 -0.08163457 -0.04493536 -0.05349251
-0.06966925 0.089480296 -0.056053054 0.10780587 -0.06158729 -0.044192597 -0.05310604 0.10864694
-0.054717336 -0.03343457 0.07443963 -0.033065118 -0.08059023 -0.0439312 0.044114243 -0.02370229
0.08474029 0.042626042 -0.032801524 -0.05479565 0.07082886 0.023198739 0.10784407 -0.051974826
-0.049653642 -0.055025242 -0.059610914 -0.06669505 -0.05162435 -0.038564995 0.023630934 -0.049781453
-0.04872627 -0.055408426 -0.05281526 -0.03639909 -0.034124486 0.08665169 -0.061907414 -0.05069533
-0.049990572 0.114726156 0.088266045 0.12027989 0.102746315 -0.057824213 0.090260446 0.05612386
-0.06692074 -0.027309697 -0.034264933 -0.042452496 0.098223 -0.028862897 -0.004774145 -0.029192269
-0.03467053 -0.040356025 0.068662286 -0.012829175 -0.041620504 -0.012165592 0.1164375 0.089443
0.032525152 -0.05068454 -0.04755646 -0.048563145 -0.021555757 -0.008445427 -0.05869246 -0.04093548

bias f4 [9]
00000000: b5ee 9b38 838f 13b7 fa66 a836 3770 9737
00000010: 97e7 c8b8 60d9 8bb7 3870 8e38 b503 3d38
00000020: 6df8 deb8
7.4354386e-05 -8.795297e-06 5.018778e-06 1.8052857e-05 -9.57988e-05 -1.6671314e-05 6.79199e-05 4.5064564e-05
-0.00010632058
