TissueClassifier_CRC100K/models/ann_resnet18_model.pth (torch, 373174 bytes, 6 tensors)

weight f4 [128, 512]
000000 9b 31 1e 3c 57 5d c3 bd 25 09 f5 bb b8 4c b8 bd
       0.009655382 -0.095392875 -0.0074778968 -0.08999008
000010 2c 67 2b bd 8b 60 15 bd dd b7 e6 3c 3b ea e1 bc
       -0.04184644 -0.036469024 0.028163845 -0.02757751
000020 45 82 b9 bb e6 2b c2 bc e4 05 91 bc af 75 16 3d
       -0.0056612813 -0.023702573 -0.017703004 0.036733326
000030 1b a3 7f 3d e4 e7 ab bd 52 09 51 bc 89 c6 be bc
       0.06241141 -0.08393839 -0.01275857 -0.023288028
000040 0a bf 0c 3d 59 c8 20 bc 11 82 8a bc e8 bc e8 bc
       0.034361877 -0.009813392 -0.016907724 -0.02841039
000050 b9 67 c1 bb 0e 3b 3a 3c 4e 73 f9 3c 90 36 2f bd
       -0.0059022573 0.011366619 0.03045049 -0.042776644
000060 9b 33 f9 bc 41 59 b7 bc dd 79 e6 bd 66 61 04 bc
       -0.030420115 -0.022381427 -0.11253712 -0.008079862
000070 5f d7 5d 3c cc bc 4b bc 16 7a c7 bd 52 09 8a bd
       0.013540118 -0.012435149 -0.09740083 -0.06740059
000080 fc 61 61 3c e7 13 57 3b 38 3d 35 bb c7 78 b3 3d
       0.013756271 0.003281826 -0.0027654897 0.08763271
000090 fd da 31 bc fb a2 05 bd 7c 75 68 bd c2 09 a9 3c
       -0.0108554335 -0.032626133 -0.056752667 0.020634536
0000a0 55 b0 70 3b 67 c0 04 bd 22 c5 87 3d 01 78 a9 bb
       0.0036726196 -0.03241005 0.06629397 -0.0051717763
0000b0 75 0a 7f 3d c8 0d fc 3c c1 d3 ec bc 47 2f 73 3d
       0.062265832 0.03076829 -0.028909566 0.05937126
0000c0 af 3e 94 bd a5 51 d6 3c 3b e3 66 bd 8d 70 68 3d
       -0.072385184 0.026161978 -0.056369048 0.05674796
0000d0 66 db 71 3d 8f d4 8b 3d e4 6b eb bc da 1f 06 bd
       0.059047125 0.06827652 -0.02873797 -0.03274522
0000e0 d8 ac 37 3d fa 53 46 bd 0c e7 ef bb 2f d9 6c 3c
       0.04484257 -0.04841993 -0.007321244 0.0144560775
0000f0 09 f2 ec bc 7a 2d 91 bb 77 a5 76 bd e0 73 14 bd
       -0.028924005 -0.00443047 -0.060216393 -0.03624332
000100 52 3b 34 bd 16 27 b0 bc e6 4e c4 3b 12 d4 60 bc
       -0.044001885 -0.021503013 0.0059908507 -0.0137224365
000110 8a a5 bf 3c 47 89 cf 3c 86 e2 95 3b 36 8b 59 3d
       0.023394365 0.025334014 0.004574123 0.053111278
000120 df 4e 42 bc 2c 84 e7 bb 45 e7 94 3d eb e3 df 3b
       -0.011859625 -0.0070653167 0.07270674 0.00683259
000130 06 82 27 3c f2 b7 d3 bc 06 0c 06 3d 2c 15 9d bc
       0.010223871 -0.025844548 0.03272631 -0.019175135
000140 17 44 1e 3c 99 d0 e8 3b f0 66 68 3d ec cd 50 3d
       0.009659789 0.007104945 0.056738794 0.050977632
000150 59 ef 96 3d da c7 c0 3b 84 91 3a bd 80 f5 c2 bc
       0.07369871 0.005883199 -0.04554893 -0.023798704
000160 67 82 70 3c 57 02 aa bc 58 3d 6d 3d 97 44 2d 3d
       0.014679528 -0.020753069 0.05791983 0.04230174
000170 24 35 39 3b 86 b4 52 3d b1 23 1e bc 77 2f 1c bd
       0.0028260434 0.05144169 -0.009652064 -0.038131204
000180 6d e3 33 3c b9 f7 4d 3d 7c c5 c7 bd 11 e8 0e bd
       0.0109795155 0.050285075 -0.09754464 -0.034889285
000190 1c 07 26 3c 07 a7 37 3d 09 62 82 bd 24 47 4d bb
       0.010133531 0.044837024 -0.06366355 -0.003132292
0001a0 b7 43 17 bd 0b 33 41 bc f4 98 f1 bc 18 ea 3c 3d
       -0.036929812 -0.011791955 -0.029491879 0.046121687
0001b0 55 18 ca 3b f0 a0 15 3d 79 c4 92 bb e0 58 4c bd
       0.0061674514 0.036530435 -0.004478988 -0.049889445
0001c0 f4 87 eb 3c 70 0d 90 3d ec 08 06 3d b7 96 5a 3d
       0.028751351 0.07033813 0.032723352 0.05336639
0001d0 9a 34 8b 3b 16 89 82 bc 92 ed 10 3b b5 24 8e 3b
       0.004248214 -0.015934508 0.002211426 0.004337872
0001e0 fe 72 41 bd 2b d1 5a 3d ae 72 8e 3d a4 2f 1f 3d
       -0.047228806 0.053422134 0.06955467 0.038863793
0001f0 1d 5e c4 bc 7d bd 08 bd 7c 28 1a 3d a1 2a 41 3c
       -0.023970658 -0.033383835 0.037636265 0.011789949
000200 a3 60 39 3d f7 62 c1 bc 7d 8a 84 3c b5 79 5e bd
       0.045258176 -0.02360676 0.016179318 -0.054315288
000210 3e 32 8b bc 29 94 3c 3c 1f 94 97 bd 51 8b 27 bd
       -0.01699173 0.0115099335 -0.07401299 -0.040904347
000220 b3 f0 da bc 7d d3 b3 3c 81 6f b7 3b a5 d2 92 3d
       -0.026726102 0.021951431 0.005598009 0.071690835
000230 68 24 3a 3b 1b 16 a3 bc e7 de b3 3c ee 43 01 bd
       0.0028403047 -0.019908002 0.021956874 -0.031558923
000240 c1 26 26 bd 82 d0 cb bd 2a 5d ab 3d 7e 51 ac 3d
       -0.040564302 -0.09951879 0.08367379 0.08413981
000250 1e 04 9c b9 30 c9 37 bd 85 82 48 3d 33 de 1c 3d
       -0.00029757706 -0.0448696 0.048952598 0.038297843
000260 38 9f bb 3c be 62 9e bd 8a 1d 0a bc 9b 84 3b 3d
       0.02290307 -0.07733677 -0.008429894 0.04578076
000270 50 80 5b 3d 54 dc 40 bc 85 eb f0 3c 3a cd 6b bd
       0.053589165 -0.01177128 0.02940918 -0.057568766
000280 e9 be 6c 3c c8 eb 9b 3b 60 d3 b8 bc 40 bc 8a 3c
       0.014449813 0.004758332 -0.022561729 0.016935468
000290 0e 59 2d 3d 2e ba 27 3b 56 fd 58 bb 88 79 e8 3b
       0.042321257 0.002559315 -0.0033109984 0.007094566
0002a0 37 52 b7 bc 44 9a 8b 3d 0c f0 4f 3d 6b 38 5e 3d
       -0.02237807 0.06816533 0.050766036 0.054253023
0002b0 07 9e 1b bd 33 a7 d5 bc 5c 18 dd bb 38 3b 58 3d
       -0.037992503 -0.026080703 -0.0067472886 0.05279085
0002c0 e2 02 04 bc 94 dc b6 bc 53 fc c4 bc dd 2a 17 bd
       -0.008057328 -0.022321977 -0.024046099 -0.036906112
0002d0 4a 8f 38 bd 18 d7 20 3d 5a 70 bb 3d 9c 50 55 3d
       -0.045058526 0.03926763 0.09152289 0.05207883
0002e0 78 cd 89 bd 44 3f 76 bb b4 20 c7 bc bd 17 3f bd
       -0.06728643 -0.003757433 -0.024307586 -0.046653498
0002f0 aa 6a 3e 3c c5 9a b9 3d 2d dc 39 3c 97 55 6f bd
       0.01162211 0.09062723 0.011343998 -0.058431234
000300 3f 2a da 3c 40 f0 1c 3d 96 b7 5b bb 50 82 92 3c
       0.026631473 0.038315058 -0.0033526174 0.017884403
000310 73 c8 6f 3d 3d f9 0d 3d a6 ae 8b 3c 89 98 98 bd
       0.058540773 0.03466152 0.017051052 -0.07450969
000320 e8 4d 62 3d cc a9 97 3c 82 9f da 3c b4 c9 3e bc
       0.05525008 0.018513583 0.026687387 -0.011644769
000330 7c d8 10 bc f6 56 1a 3d a6 a8 d5 3b 06 99 a3 bc
       -0.008840676 0.03768059 0.0065203486 -0.019970428
000340 0e 4d c8 3a 5f 31 e8 bc b5 d8 3c bd 9d e4 0f 3c
       0.0015281753 -0.028343854 -0.046105105 0.008782533
000350 fd a5 bf bc 69 e3 cb 3c 38 d8 4b bd a8 57 8c 3d
       -0.023394579 0.024888711 -0.04976675 0.068526566
000360 df a0 c9 3c d9 5d 51 3d 80 0f 2e bd d9 8c 29 3d
       0.024612842 0.05111489 -0.04249525 0.04139409
000370 33 34 ce bc a2 37 3f 3c 39 9a 75 3d 7c be e7 bc
       -0.025171375 0.011670979 0.05996153 -0.028289072
000380 ae 0e a1 bc a7 62 70 bc 42 18 c5 bc f2 68 c6 3a
       -0.01966032 -0.014671958 -0.024059419 0.0015137477
000390 ba 12 bd bc 85 49 a1 bb 56 07 93 bb c5 ca af 3d
       -0.023080219 -0.0049220943 -0.0044869585 0.08583597
0003a0 50 fa 82 3d be 0e e6 3c 73 fb 75 bc 46 eb cd bc
       0.063953996 0.028083201 -0.015013563 -0.025136601
0003b0 fd 17 8d bd c3 e0 8f bd 35 65 bf 3c 6c b5 2f bc
       -0.06889341 -0.07025292 0.023363689 -0.010724407
0003c0 98 9c 6b bd 38 23 35 3d 32 69 c9 bc 37 75 98 3d
       -0.057522386 0.04422304 -0.024586294 0.07444232
0003d0 b5 1a 30 3c 3a 88 d1 3c 5d 20 9e bb 80 df 6d bd
       0.010748555 0.025577653 -0.0048256353 -0.058074474
0003e0 c3 a6 14 bc 1b 77 19 bd 80 ab 62 3d c1 82 b6 3d
       -0.009072962 -0.037467103 0.055339336 0.08911658
0003f0 27 a6 ac 3d e9 b3 4b 3d 15 48 2b 3b d9 5a 6a 3c
       0.084301285 0.049732123 0.0026135494 0.014303886

bias f4 [128]
000000 47 14 59 31 c7 9d d4 b1 31 57 9b b1 d5 0b a2 b0
       3.1589182e-09 -6.1879493e-09 -4.5210062e-09 -1.1790414e-09
000010 fc 5b 2f 30 4a 40 1d 31 9e a2 18 32 76 28 b5 30
       6.3795347e-10 2.288305e-09 8.884539e-09 1.3180983e-09
000020 59 36 56 b1 de 92 3f 31 6f d4 f3 b1 3a 05 fd b1
       -3.1171992e-09 2.7877642e-09 -7.0963817e-09 -7.3638633e-09
000030 0a ba 1d b0 0c f2 7c b1 aa 4d 15 b1 c4 62 1d b2
       -5.7380645e-10 -3.6808414e-09 -2.17265e-09 -9.1610595e-09
000040 5b d4 a9 ab 06 87 29 31 94 b1 84 30 4f 7e d1 31
       -1.2067113e-12 2.4669489e-09 9.654735e-10 6.09706e-09
000050 7a e7 cf 31 ca bb 42 30 8b 59 d0 b0 c0 c6 d0 af
       6.0508087e-09 7.0843653e-10 -1.5159441e-09 -3.79762e-10
000060 19 a4 4c b1 70 68 d5 31 02 3f d1 30 2f e6 10 32
       -2.9779186e-09 6.210989e-09 1.5224659e-09 8.434241e-09
000070 a9 6b a3 30 42 c2 14 af e7 ea c4 af 1b 34 a5 31
       1.189041e-09 -1.3529536e-10 -3.58191e-10 4.8080557e-09
000080 ec 54 5f 2f b2 d5 86 b1 4c c7 b8 af 4a e2 4d 31
       2.0311902e-10 -3.9242076e-09 -3.3611014e-10 2.9960057e-09
000090 8c 9b 49 af ef 45 6a b0 7c f8 ad 2d fb fe aa b1
       -1.8336105e-10 -8.5228086e-10 1.9778172e-11 -4.976639e-09
0000a0 be ee 75 b1 89 6e df b1 a1 94 51 31 9a 91 9c 31
       -3.5787902e-09 -6.5027206e-09 3.0497989e-09 4.5567505e-09
0000b0 9a 5e 91 31 6f ae 84 30 12 3e 0b 30 bf 03 59 31
       4.2308104e-09 9.653841e-10 5.065611e-10 3.1579785e-09
0000c0 c4 e7 8c 31 e3 4a 94 b0 f0 03 ce 31 56 f5 ec b0
       4.100885e-09 -1.0789701e-09 5.9958367e-09 -1.7240989e-09
0000d0 b2 d5 a9 30 b3 30 12 31 e3 0a a5 31 5c 0b ce b1
       1.2357104e-09 2.1273479e-09 4.8033697e-09 -5.9966805e-09
0000e0 61 84 bb 2f f4 d3 92 31 ad 75 ea 31 58 d8 ee 2c
       3.4109163e-10 4.2732555e-09 6.8236745e-09 6.788386e-12
0000f0 c5 92 39 b1 8f bc 34 b2 d9 ef 84 b0 a0 3e 5d 30
       -2.7004472e-09 -1.0520252e-08 -9.672433e-10 8.0488327e-10
000100 56 33 dc af 8d ca 55 32 eb bb a5 31 e2 fd b6 31
       -4.0054243e-10 1.24442865e-08 4.823496e-09 5.3257603e-09
000110 75 fe bb 31 c5 6d be af 3f 2b 24 2d 86 3b c9 31
       5.4713447e-09 -3.4638795e-10 9.331923e-12 5.856637e-09
000120 4d e7 34 b0 55 65 67 2e 09 a4 e5 ae 68 55 5b 31
       -6.5812317e-10 5.261332e-11 -1.0442853e-10 3.1917242e-09
000130 91 dd 82 31 dc b0 cd 2f c9 a6 98 2d 46 57 11 b1
       3.808687e-09 3.741495e-10 1.7354467e-11 -2.1149886e-09
000140 77 53 0c 31 df 15 94 31 e7 27 9f ad 78 f5 b5 31
       2.0420126e-09 4.3098534e-09 -1.8093927e-11 5.2957e-09
000150 19 d6 7f 2d ab 28 14 b0 a2 4b a9 30 83 7c 1e 32
       1.4542611e-11 -5.389988e-10 1.2317865e-09 9.225121e-09
000160 da 8c d2 31 46 a0 c5 b1 67 73 57 b1 9a cc e7 30
       6.1278174e-09 -5.7516756e-09 -3.1352216e-09 1.6865613e-09
000170 a4 60 6c 31 67 2d e5 2e 81 22 1e b1 6b a7 33 af
       3.4397454e-09 1.04217794e-10 -2.301164e-09 -1.6339434e-10
000180 bd d1 5b 31 43 d9 f4 b0 bf 74 18 31 23 14 cb b1
       3.1987917e-09 -1.7815086e-09 2.2185274e-09 -5.910367e-09
000190 85 88 9e 30 5b 7d be ac 87 10 40 2f e8 38 a8 b1
       1.1534814e-09 -5.414042e-12 1.746817e-10 -4.895913e-09
0001a0 10 6a 12 31 b2 ac ad 2f 6b 40 56 2f 90 d4 73 b1
       2.1306086e-09 3.1591224e-10 1.9486072e-10 -3.5481982e-09
0001b0 a9 39 9c b0 d6 95 9d b0 65 10 06 b2 5c 20 26 b1
       -1.1366882e-09 -1.1465839e-09 -7.803554e-09 -2.4174573e-09
0001c0 96 24 d2 b1 af 91 37 31 a3 1c 60 32 86 24 52 b1
       -6.1159637e-09 2.6712816e-09 1.3045027e-08 -3.0579783e-09
0001d0 51 7c b0 30 c1 ce 33 2f 79 b8 89 30 d9 de f0 31
       1.2841018e-09 1.6353409e-10 1.0020492e-09 7.010254e-09
0001e0 20 bf 1e af 4a 2b 41 31 f4 c1 48 b1 86 e2 27 30
       -1.4437918e-10 2.8109803e-09 -2.921408e-09 6.1076155e-10
0001f0 a8 1f e6 b1 47 a3 3b 31 87 27 8f 30 43 32 bf b1
       -6.69748e-09 2.7304894e-09 1.0415854e-09 -5.5645457e-09

weight f4 [192, 128]
000000 84 6f db 3d 22 74 9e bb 8b 7c 0b bc f9 06 8c 3c
       0.10714629 -0.0048356215 -0.00851358 0.017093169
000010 14 58 03 bd 35 17 c2 3d f5 76 fa 3d 2c 98 3c 3d
       -0.03206642 0.09477083 0.122297205 0.04604356
000020 cd 60 86 3d 58 0f ca 3c 9e 88 b8 3d 2d 8c 70 3c
       0.06561432 0.02466552 0.09010433 0.014681858
000030 1f e9 e4 3c 52 00 88 bd 50 2c b8 3d c4 e6 82 bd
       0.027943192 -0.06640686 0.08992827 -0.06391671
000040 70 bb ea 3c 8d 32 43 bd f9 33 c7 3d 53 80 12 3d
       0.02865383 -0.04765563 0.0972671 0.03576691
000050 e7 c9 2f 3d 29 ff 0e 3b 5f f8 88 bd 2e 10 fd bc
       0.04291716 0.0021819568 -0.06687998 -0.030891504
000060 4a f4 3c 3c 36 e2 fd 3d c0 08 18 bd 17 e1 63 bc
       0.011532852 0.12396662 -0.03711772 -0.013908646
000070 e6 02 41 bd 6c 1b 10 bd a1 4a d1 bc 24 c4 b4 3d
       -0.047121905 -0.0351824 -0.025548281 0.08826473
000080 11 8c e7 3b bd 68 cb 3c 77 f1 d9 3b 6b 80 e0 bd
       0.0070662578 0.024830217 0.0066510993 -0.10961994
000090 88 6f 6a 3d fe 24 8a 3d 37 4b 8d 3c 1b 0f 41 bd
       0.05723527 0.06745337 0.01724778 -0.047133546
0000a0 85 91 06 bd b6 7f 8e bb 82 5a 50 bd 8c 41 54 bd
       -0.032853622 -0.0043487204 -0.050867565 -0.051820323
0000b0 15 f2 3d bc 81 86 a7 3c b0 bd 7a 3c 20 34 72 bc
       -0.011593361 0.020449879 0.015304014 -0.014782935
0000c0 4d e7 8f 3d cb da 40 3c 59 d1 b1 bd 65 f2 6b 3b
       0.07026539 0.011770914 -0.08682508 0.0036002633
0000d0 71 f3 a3 bd 3b b2 e5 3c 02 92 8a bd 8f af 5d bd
       -0.08005417 0.028039088 -0.0676613 -0.054122504
0000e0 7d 3f 6a 3d 4a cc d8 bb e8 e7 88 3d 19 bd 88 3d
       0.057189453 -0.00661615 0.066848576 0.066766925
0000f0 00 08 1e 3d df a5 c5 3c d6 f9 9d 3d 5a 35 85 bc
       0.03858185 0.024126945 0.07713668 -0.016260792
000100 90 d1 f1 3c d3 09 e0 3d b9 f2 f6 bb 8c e5 10 bd
       0.029518872 0.10939374 -0.007536259 -0.035375163
000110 19 eb a5 3d 3e 15 50 bb 4f e3 39 3c ea 44 76 bc
       0.08101482 -0.0031750943 0.0113456985 -0.015031079
000120 b7 77 ab 3d 30 71 af 3c d5 e7 c0 bc c3 69 a7 bb
       0.08372443 0.021416277 -0.023548046 -0.0051090433
000130 d9 eb 80 3d be a9 6f bc 4a 09 98 3d 06 60 38 3d
       0.06294984 -0.014627872 0.07423647 0.04501345
000140 e4 4a 22 3d e8 09 9b bd 57 ed 8a 3c f9 80 96 3d
       0.039622203 -0.07570249 0.016958876 0.07348818
000150 4f e5 9c ba 9d 84 4c 3c ea 94 9f 3d 6d 6f 6d 3c
       -0.0011970195 0.012482789 0.07792075 0.014491898
000160 f7 f0 b9 bc 6a 70 3f bc d4 91 59 bd 59 e7 cf 3c
       -0.022697909 -0.011684516 -0.05311759 0.02537887
000170 cb 27 6c 3b 9a f3 90 bd 35 00 39 bd e0 da 10 bb
       0.003603446 -0.07077713 -0.045166213 -0.0022103116
000180 1c 26 51 3d 65 38 c0 3c ef da 4f bd f4 cf 50 bd
       0.051061735 0.023464391 -0.0507459 -0.05097957
000190 50 2b d2 3d c5 7b ca 3c e7 7f f3 bd bb 59 3b bd
       0.102621675 0.024717221 -0.1188963 -0.04573987
0001a0 f5 a4 b8 bc 5e 2f ee 3c 0e 35 5b bd 99 43 d9 3b
       -0.022539595 0.02907532 -0.053517394 0.0066303727
0001b0 f3 ce 0c 3d 6e 99 a2 bd 92 59 b0 3c b9 ba 82 bc
       0.03437705 -0.07939421 0.021527085 -0.015958177
0001c0 b3 e0 3f bc 59 a9 b9 bd ee a8 51 3d 3f 99 cf bb
       -0.011711287 -0.090655036 0.051186495 -0.006335407
0001d0 1f 84 c0 bd d5 21 25 3c 9f 90 1f 3b 9b 12 5b bd
       -0.094002 0.010078867 0.0024347675 -0.05348454
0001e0 4e af 7b 3d a7 56 da 3d 79 22 d2 3d 63 76 12 bd
       0.06144648 0.10661059 0.102604814 -0.035757434
0001f0 83 fa 80 3d 7b 4c 6f 3c 45 20 ad bd 16 26 a4 bb
       0.06297781 0.014605637 -0.084534205 -0.005009423
000200 1d 7b d6 3d 5a a0 96 bc 4d 9e d7 3d a5 f2 b4 bc
       0.10472701 -0.018387008 0.1052824 -0.022088358
000210 cc d4 c2 bc 2a 32 06 bb c6 e1 c5 bd c9 a8 46 3d
       -0.02378311 -0.0020476677 -0.096622035 0.04850081
000220 8c 53 f2 3d 8a 52 5d bc 7c a8 fc 3c 89 91 d3 bc
       0.118323416 -0.013508448 0.030842058 -0.025826233
000230 d7 5a 3d 3d 9a b0 a7 bd 8c bb 3a 3d dd 38 e9 3c
       0.04622921 -0.08187981 0.045589015 0.028469497
000240 7b 29 04 bc 83 a0 04 3d de c3 ed 3c eb be a5 bd
       -0.00806653 0.03237964 0.02902406 -0.08093055
000250 65 2f 1a bd 6a 5e ed bc cf 60 a2 bc fd 1e c6 bd
       -0.037642855 -0.028975684 -0.019821553 -0.09673879
000260 94 6e 8c bc 14 58 ee bc bb 22 65 3d b8 6f 21 3d
       -0.017142572 -0.029094733 0.055941325 0.039413184
000270 91 88 4b bc db 01 90 3c 9c 2b 53 bd 41 52 76 3b
       -0.012422697 0.01757901 -0.05155526 0.0037585648
000280 28 21 8a bb 29 29 8d 3d 90 bb 8c 3c b7 14 8b 3d
       -0.0042153783 0.06892616 0.01717928 0.067910604
000290 51 5b ab 3d d2 4a 58 bd 04 4d f7 bc f3 ec a7 3c
       0.083670266 -0.05280573 -0.030188091 0.020498728
0002a0 41 4b 6f 3c 06 89 3f 3b 9d 38 4a 3c b1 46 d9 bc
       0.014605344 0.002922596 0.012342599 -0.026522966
0002b0 67 02 d3 3d 26 50 3c bd 88 70 bb 3c 4e d7 15 3e
       0.103031926 -0.045974873 0.022880808 0.14632913
0002c0 5c 4b 84 3b 48 ce 6d bd a5 1e e5 bc cb 96 ca 3c
       0.004037304 -0.058058053 -0.027968714 0.024730107
0002d0 ec 55 86 bc c2 c5 da bc fa e5 00 3e 29 f6 66 bd
       -0.016398393 -0.026705626 0.12587729 -0.0563871
0002e0 f0 d3 98 bc 5f e6 1c 3d 2a 27 58 3d 56 40 3e 3b
       -0.018655747 0.038305636 0.052771725 0.0029030046
0002f0 55 a8 e3 bd 29 fa 34 bd 80 fc 74 3c 0f 1f 1e bd
       -0.11116091 -0.044183884 0.014952779 -0.03860384
000300 10 f6 95 bc 7b b7 4b 3b 07 29 97 3d 79 10 85 3d
       -0.018305808 0.0031084705 0.07380872 0.064972825
000310 92 2a 9f bd 03 3b fa 3d c9 ba 9e bb b3 62 8a 3c
       -0.077717915 0.12218287 -0.004844044 0.016892767
000320 2d 9d 88 3d 12 46 82 3b 9b 38 8a bc 28 ce ff bc
       0.06670604 0.003975638 -0.016872695 -0.031226233
000330 b8 13 d7 3d 58 4c 5e bd 4a a1 e5 3b 51 df 1e bd
       0.10501808 -0.054272026 0.0070077525 -0.03878719
000340 af 3b 9e bd 75 9d 90 3d 98 94 7f 3c 23 ac a4 3d
       -0.077262275 0.070612825 0.015599392 0.08040645
000350 62 a3 ae 38 ee 9d 13 3e 19 d2 93 bd b3 d2 d0 3d
       8.327399e-05 0.14415714 -0.07217807 0.10196438
000360 ab 4e d5 3d 9a 27 b0 3d 99 bf 85 3d a0 8d aa 3d
       0.10415395 0.086013034 0.06530685 0.08327794
000370 a9 cc 9e 3b d6 98 e5 3d de bf 5c bb 16 35 b6 bd
       0.0048461747 0.11210792 -0.0033683698 -0.08896844
000380 fe 16 9a 3d 93 fc f9 bd 58 26 41 bb 8d 10 90 3d
       0.07523917 -0.12206378 -0.0029472318 0.07034407
000390 f6 ef 71 3b 44 33 c1 ba f5 bd 2a 3d c1 b7 08 bd
       0.003691671 -0.001474001 0.041685063 -0.033378366
0003a0 5c 7d 8c bd 0b c6 fb 3d 27 ad 44 3d a0 f0 4d 3c
       -0.06859848 0.12293633 0.048016693 0.0125695765
0003b0 2a 8d 06 3d 30 a4 aa 3d b0 86 dc 3d 75 12 da bc
       0.03284947 0.083320975 0.10767877 -0.02662013
0003c0 61 99 89 bd 27 24 87 bd d9 f9 ac 3c f4 33 8b 3c
       -0.06718708 -0.065986924 0.02111523 0.016992547
0003d0 2e a7 9a 3c cb a5 92 3d a4 10 54 bd 1f 7e 34 bd
       0.018878546 0.07160529 -0.051773682 -0.04406559
0003e0 4d 85 1b bd fc d0 2f bd 13 ec a6 3d 2d f2 14 3d
       -0.037968922 -0.042923912 0.08150496 0.03636377
0003f0 41 e8 79 bc 78 ad 47 3d c1 09 e1 bd 5e be f8 3c
       -0.015253128 0.048749417 -0.109881885 0.030364212

bias f4 [192]
000000 41 21 c3 2f 7c fb 19 31 52 cd 1e 30 fc 3d db b0
       3.5493922e-10 2.2407383e-09 5.7771843e-10 -1.5951964e-09
000010 dd 39 72 b0 23 b5 a5 b0 3e 1f c3 2f 1c db 49 b1
       -8.8121316e-10 -1.2056812e-09 3.5492492e-10 -2.9373899e-09
000020 b7 2d 1f 2f 26 e1 15 30 0e 0a 01 30 41 fa bf b0
       1.4477207e-10 5.452584e-10 4.6944215e-10 -1.3968205e-09
000030 d4 1c 69 30 40 8f 47 b1 ed 33 a4 2f d0 c8 7a b1
       8.4805873e-10 -2.903974e-09 2.9868322e-10 -3.6493937e-09
000040 d7 5e 80 2f 16 92 b0 2f 72 45 b2 30 9c ec ca ad
       2.3350452e-10 3.2118014e-10 1.2970942e-09 -2.3069817e-11
000050 9e 2f 00 b1 55 bd 98 b0 ac a9 f8 30 6e 11 d7 30
       -1.8653519e-09 -1.1113267e-09 1.8092599e-09 1.5648263e-09
000060 d7 9b cb b0 3e aa d3 b0 db 75 70 b1 e7 bb b2 ae
       -1.4814486e-09 -1.5400656e-09 -3.499159e-09 -8.127881e-11
000070 e0 60 28 31 de 0b a1 b0 9a 27 fa 2e 60 b9 50 b0
       2.4502285e-09 -1.1717665e-09 1.13757184e-10 -7.5933393e-10
000080 ad c8 cb b0 c6 9b d0 30 03 31 39 31 14 18 b9 30
       -1.4827229e-09 1.5178265e-09 2.6948903e-09 1.3467365e-09
000090 60 aa 38 2f 6c 40 6f 30 e7 81 9a 30 56 7a e6 af
       1.6795232e-10 8.703924e-10 1.1241895e-09 -4.192368e-10
0000a0 6c a3 9c af b7 ab 3d b1 0c 7d 32 b0 0f bd aa 31
       -2.8492353e-10 -2.7600728e-09 -6.4933725e-10 4.9691447e-09
0000b0 b8 69 94 b0 57 78 a5 30 b3 d1 8e 2f 3d 79 80 2f
       -1.0798464e-09 1.2039533e-09 2.597865e-10 2.336921e-10
0000c0 28 f4 6c af 14 b0 82 2f 51 7e 68 2f 5b 8d 1b b1
       -2.1550817e-10 2.3771973e-10 2.1145154e-10 -2.263582e-09
0000d0 dc 67 e6 ae b4 5e a9 b0 aa 99 47 31 da 36 6a 31
       -1.0477638e-10 -1.2323285e-09 2.904566e-09 3.4082661e-09
0000e0 13 2c 1a af 15 cd b1 af 0a 31 4d 30 df b7 a0 2f
       -1.4021877e-10 -3.2341832e-10 7.4648254e-10 2.923448e-10
0000f0 ab c0 fb 2f 2e 7d 1e 30 b8 76 9f b0 63 d2 0a b0
       4.5793533e-10 5.7657956e-10 -1.1602515e-09 -5.0503085e-10
000100 19 d7 e7 b0 50 01 d3 30 2b a5 7a 30 07 0e 37 b0
       -1.6868597e-09 1.5352644e-09 9.118419e-10 -6.6594946e-10
000110 89 9d 54 af f3 04 fa ad f3 e5 a4 af 74 91 4e 30
       -1.9337255e-10 -2.8423907e-11 -2.9994815e-10 7.5149065e-10
000120 f9 73 a7 2f b5 7c 15 b0 33 24 fd b0 67 58 c5 af
       3.0459527e-10 -5.4383104e-10 -1.8418461e-09 -3.5896905e-10
000130 4e b1 41 2f 86 8e 4a b0 2e 00 e1 af 15 68 df 30
       1.7616239e-10 -7.368971e-10 -4.092739e-10 1.6254967e-09
000140 75 46 cb 30 39 f8 15 b0 f6 c5 dc 30 35 27 c6 2f
       1.4790219e-09 -5.455863e-10 1.6063371e-09 3.6043848e-10
000150 58 d9 28 b1 f7 ba f3 2d c7 97 d1 2f 1f 4e 57 30
       -2.4570763e-09 2.770893e-11 3.8124723e-10 7.832756e-10
000160 00 2c eb b0 99 81 fe 30 52 6c dc b0 73 eb b1 30
       -1.7111006e-09 1.8517766e-09 -1.6037893e-09 1.2945364e-09
000170 a3 99 02 30 9c 2c 00 31 ec f6 bd 2f 44 72 b5 2e
       4.7512055e-10 1.865181e-09 3.4554348e-10 8.251225e-11
000180 60 98 b5 30 ee a2 04 30 ff 6b 5a 2f 47 ef 15 b1
       1.3212791e-09 4.825286e-10 1.9865352e-10 -2.1818367e-09
000190 66 c7 9d b0 8c 07 c4 2f d2 f1 b4 30 9c e5 52 b0
       -1.1479926e-09 3.5657555e-10 1.3165453e-09 -7.672385e-10
0001a0 25 8e 69 2f 56 d0 e7 b0 e6 2f 0d 30 a9 77 43 31
       2.1241726e-10 -1.6866675e-09 5.136357e-10 2.8444254e-09
0001b0 c6 95 9a b0 de 26 ed ae 35 5f 88 30 62 f6 6e b0
       -1.1247543e-09 -1.07844164e-10 9.922362e-10 -8.6934027e-10
0001c0 a3 c1 bd b0 0b ab 84 b0 34 66 66 af 9b ec 31 b0
       -1.3806595e-09 -9.652877e-10 -2.0954688e-10 -6.472846e-10
0001d0 1f f7 e1 b0 d7 de c6 2f 5c 3b 24 b1 0c 36 e4 2f
       -1.6441141e-09 3.6174327e-10 -2.3898883e-09 4.151136e-10
0001e0 85 d2 f6 31 71 ba e3 b0 9a 0b d5 b0 f9 91 ed b0
       7.1834756e-09 -1.6569414e-09 -1.5501087e-09 -1.7285507e-09
0001f0 9c 6e b2 31 92 c9 90 30 b2 97 56 b1 37 91 a7 30
       5.1930567e-09 1.0534669e-09 -3.1227327e-09 1.2192122e-09
000200 39 ee 97 2f b6 81 bf ae 6b a9 4f b1 54 03 36 30
       2.7636007e-10 -8.708716e-11 -3.0218767e-09 6.6215944e-10
000210 f3 3d 6b 31 76 8f f8 30 96 77 96 b0 33 94 72 32
       3.4232215e-09 1.8085149e-09 -1.0947925e-09 1.41199505e-08
000220 70 64 20 2f 7c fc d7 31 ea 13 96 2f 4d 94 86 30
       1.4587598e-10 6.2860277e-09 2.729899e-10 9.791933e-10
000230 f1 77 89 30 09 f6 a9 ad 4b 00 73 b0 26 e9 46 2f
       1.0002151e-09 -1.9322337e-11 -8.84033e-10 1.8090826e-10
000240 20 b7 30 31 c6 df e8 af d6 7f 33 31 17 0a 24 31
       2.5715465e-09 -4.2359555e-10 2.6120595e-09 2.3870876e-09
000250 13 82 ff b0 19 bd 1c 30 c6 a5 4b 30 b6 c4 db 30
       -1.8590661e-09 5.7021193e-10 7.408655e-10 1.5990256e-09
000260 61 bc 17 30 b4 57 ba 30 13 fd 11 31 53 e5 5b 31
       5.520118e-10 1.3558208e-09 2.1244133e-09 3.199905e-09
000270 d0 d6 8d b1 17 3a 46 ae b4 34 0f 31 d5 c7 d6 b0
       -4.1280614e-09 -4.5071582e-11 2.0839197e-09 -1.5627345e-09
000280 dd 91 bb b0 58 6d 10 b1 0f ed 29 30 7c 10 f0 b0
       -1.3647498e-09 -2.1016913e-09 6.181872e-10 -1.7466983e-09
000290 03 86 df 30 80 82 20 2f d9 42 65 2d a8 5d 4d 2f
       1.6263474e-09 1.4598278e-10 1.3031986e-11 1.8677915e-10
0002a0 5f 95 a8 b0 9f 82 9a 2e 72 78 27 31 fc 49 b1 2f
       -1.2266063e-09 7.026312e-11 2.4370164e-09 3.2248682e-10
0002b0 af 36 6e 30 13 22 3c 2f 52 4c c8 2e 6f 36 7c ae
       8.6661606e-10 1.7110606e-10 9.108504e-11 -5.7346513e-11
0002c0 ce e0 88 2f c1 dd a6 2e 5a 41 36 31 7b fe cf b0
       2.489799e-10 7.5881974e-11 2.6521634e-09 -1.513356e-09
0002d0 b0 7b 18 30 d6 e1 2b 30 59 2d a8 b0 82 2e 0c 31
       5.547305e-10 6.253037e-10 -1.2236497e-09 2.0399118e-09
0002e0 df 5b a9 ae a8 ae 90 b0 f8 3e 18 30 d5 7c f6 2f
       -7.70155e-11 -1.0527019e-09 5.538676e-10 4.4835838e-10
0002f0 bf f4 27 30 b0 c1 c6 af e2 c1 9f 30 a9 25 83 30
       6.110205e-10 -3.6153613e-10 1.1623877e-09 9.542208e-10

weight f4 [9, 192]
000000 55 18 f2 3d c9 37 00 be 7d da 57 3d 19 70 9b bd
       0.11821047 -0.1252128 0.0526986 -0.0758974
000010 52 2f 3e 3d c9 77 81 bd c2 08 54 3d 8f 8d 23 be
       0.046431847 -0.06321675 0.051766165 -0.15971969
000020 9b f8 c4 bd 0f 13 11 3e 7b 7e 8f 3c 7d 1b fa bd
       -0.0961773 0.14167427 0.017516365 -0.12212274
000030 d7 5d 0b 3e 5e 8f ea bb ab b0 b2 3d 6f 4c 69 3d
       0.13610016 -0.007158204 0.08725103 0.05695766
000040 34 78 d2 bd 73 98 b6 3c e4 e1 13 3b b7 34 36 3d
       -0.10276833 0.02228949 0.0022565061 0.044483867
000050 af f5 8b bd c5 e2 a1 3d 82 d3 85 bd ef 1c 16 be
       -0.0683397 0.07904581 -0.065344825 -0.14659475
000060 12 55 f6 bd 0f 9d 38 bd 9e 24 07 be 51 f4 c9 3d
       -0.120279446 -0.045071658 -0.13197562 0.09861053
000070 9c 7e cc 3d 54 c5 18 bd f1 bb cf 3c 58 1c ba 3d
       0.09985086 -0.03729756 0.025358172 0.090874374
000080 a4 97 00 be 41 4a f2 bd 3f 00 ea bd dd 1c a9 3d
       -0.12557846 -0.11830569 -0.11425828 0.08257458
000090 83 93 c2 3c b6 ed 80 bd 93 aa 75 3d 5c 5f 80 3d
       0.02375198 -0.0629534 0.059977125 0.06268188
0000a0 1a 86 0d 3e 73 04 23 3e 67 48 af bd 66 12 0d be
       0.13820687 0.15919666 -0.085587315 -0.1377655
0000b0 90 c8 04 3e fc e5 79 3d b1 d0 12 be 77 d6 08 3e
       0.12967134 0.061010346 -0.14337422 0.13363062
0000c0 c7 0c 81 3c b5 8c 6c 3d 82 b1 0b 3e 0d 6a 01 3e
       0.015753163 0.057751376 0.13641933 0.12638111
0000d0 20 70 be bd 0d 51 01 be 70 2c 98 ba 53 4c 11 bb
       -0.0929873 -0.12628575 -0.0011609923 -0.0022170737
0000e0 75 1e 1c be ed 87 e0 bd 5f b2 4b 3c 19 00 c1 3d
       -0.15245993 -0.10963426 0.012432664 0.09423847
0000f0 a9 b0 0b 3e 64 ad f4 3d ed a6 e0 3d a9 4f b6 bd
       0.13641609 0.11947134 0.109693386 -0.08901913
000100 56 b4 2b be e3 b1 9a bd db b8 36 bd fb c5 04 be
       -0.16768011 -0.075534604 -0.044609886 -0.12966149
000110 0a d0 98 bd dc ad 98 3d 53 e8 5d 3d fb bf 80 bd
       -0.07461555 0.07455036 0.05417664 -0.06286617
000120 00 22 03 3e bc 5d 6d bd 64 06 ff bd 08 0c 16 3e
       0.12805939 -0.05795072 -0.12452391 0.14653027
000130 27 8a 99 bd 4f 66 ce bd 0e 7a 05 3e f7 a0 40 3e
       -0.074970536 -0.100781076 0.13034841 0.18811403
000140 3a 6a 14 3e 07 fc 58 bc 19 35 d7 bc 86 36 22 3e
       0.14493647 -0.013243682 -0.026270436 0.15841112
000150 ee f8 f6 bd 35 06 04 3e c5 ef e1 bd b6 92 37 be
       -0.12059198 0.12892993 -0.110320605 -0.1792706
000160 65 0c ff 3d 45 c1 93 ba 97 77 4c be 47 3f fc bd
       0.12453536 -0.0011272809 -0.19967495 -0.12316757
000170 c0 de 92 bd ee 04 5f 3c 43 43 13 be 46 72 68 be
       -0.071713924 0.013612015 -0.14381127 -0.22699842
000180 9c 27 01 3e 4c 2d ce bb d9 65 ee 3d 6e 18 84 3c
       0.12612766 -0.006292021 0.1164052 0.01612493
000190 5c f3 00 3e 7f ae 53 bd 25 4f 2b bd b7 93 29 3c
       0.12592834 -0.051680084 -0.041823525 0.010350159
0001a0 4b ff a3 3d 17 54 e7 bd aa f9 6d bd ca 3c 3c bd
       0.08007678 -0.11295336 -0.058099426 -0.04595641
0001b0 8c 4e b4 3d 80 78 de 3d 8c c9 09 bd b0 46 04 be
       0.08804044 0.10862827 -0.033639476 -0.1291759
0001c0 83 bf dd 3d cc ea 81 3c 20 18 fb bd 2c 99 24 be
       0.108275436 0.01585903 -0.12260461 -0.16074055
0001d0 e6 75 04 be 7b fd 12 be 51 c1 b7 3d 4f a2 0c 3d
       -0.129356 -0.14354508 0.08972419 0.034334477
0001e0 75 1d 0b be 07 a9 d8 bc 25 3d bf bd 52 37 ff 3d
       -0.13585456 -0.026447786 -0.09337834 0.124617234
0001f0 82 19 03 3e a8 7c 21 3e db 91 4c 3d 6b 37 1d be
       0.12802699 0.15770209 0.049943786 -0.15353172
000200 f5 fb fc bc 50 2f 65 bd db 31 15 be 63 4e 10 be
       -0.030881861 -0.055953324 -0.145698 -0.14092402
000210 5c 0c 51 3d e8 33 7e 3d 53 8b 91 3d be 41 0f 3e
       0.051037177 0.06206122 0.07106652 0.13989922
000220 2b 94 f1 3d 06 9d 0c be 28 32 08 bd c4 ec 03 3e
       0.11795839 -0.13731775 -0.033250958 0.12883288
000230 f6 6c 8e bd 32 04 fb 3d 12 55 23 bd d6 06 12 3e
       -0.069543764 0.122566596 -0.03987605 0.1426042
000240 e5 19 a5 3d a5 5d dc bd 8b 46 01 3e 7a d7 1e bd
       0.080615796 -0.10760049 0.12624566 -0.038779713
000250 c0 a2 10 be 5c 8e 3a bd c6 8d ab 3d 00 4e 64 bd
       -0.14124584 -0.04554592 0.083766505 -0.05573845
000260 09 4b cc bd 55 8b c2 3d 51 66 e7 bd 01 1d 93 3d
       -0.09975249 0.09499232 -0.11298812 0.071832664
000270 65 46 7e 3d 58 a7 3b bc 1c 3f 2b 3d 85 3e 2d be
       0.062078852 -0.011453472 0.041808233 -0.1691838
000280 e0 1c 80 3c bb 04 e0 bc 9e ac d0 bd db 99 18 be
       0.015638769 -0.027346006 -0.10189174 -0.14902441
000290 6a 3d ca 3c dd f2 3f bc 5c 53 f9 bd 06 eb 59 bd
       0.024687488 -0.011715618 -0.12174103 -0.05320265
0002a0 42 59 d8 3d 50 f1 cf 3b 6d 59 5f 3c b1 57 14 3e
       0.105638996 0.0063459054 0.013632161 0.14486577
0002b0 0f 03 98 bc 34 20 79 3c 58 cf cd 3d 46 40 58 3c
       -0.018556146 0.015205432 0.10049313 0.013198918
0002c0 ed 2a af bc 93 27 8c bd e0 1d 83 bd 24 15 3e be
       -0.021382773 -0.06843486 -0.064021826 -0.18562752
0002d0 06 ca 6b bc e8 d4 1a be b5 62 47 3d 77 4d a4 bd
       -0.014391428 -0.1512028 0.04867812 -0.08022588
0002e0 be 8b ed bd 2d d9 12 3e 50 b8 7c bd 9b 3c 21 3e
       -0.11598919 0.14340658 -0.06169921 0.15745775
0002f0 14 75 2d be 83 32 00 bd 68 06 b5 bd 1a b1 21 3e
       -0.16939193 -0.03129817 -0.088391125 0.15790215
000300 11 6b 5d bc 26 a5 3b be 40 aa 88 bd 8d c6 8f bd
       -0.013514296 -0.18324718 -0.066730976 -0.070202924
000310 8e 03 d4 bd 8c dd db 3d 00 e5 2e 3d d3 8f f6 bd
       -0.103522405 0.10735616 0.04269886 -0.12039151
000320 1d 21 57 bd b4 3a f1 3d c7 59 fd bd 73 e2 d9 bd
       -0.052521814 0.11778775 -0.12370639 -0.10638895
000330 76 d7 d0 3d 1e c1 85 bc 09 a6 09 3e d5 b7 ab bc
       0.10197346 -0.016327437 0.13442244 -0.020961681
000340 7d 37 b1 ba e2 2d 25 be c9 47 13 3d 58 98 1b bd
       -0.0013520565 -0.16130784 0.03595713 -0.037987083
000350 b8 14 f1 bd ec f3 7e 3c d6 f6 c6 3d c9 14 b2 bd
       -0.1177153 0.015561085 0.09715049 -0.08695371
000360 1b ca 37 bd 86 8e 3a bd 97 42 8f bd a4 d5 92 bd
       -0.044870477 -0.045546077 -0.06995123 -0.07169655
000370 ca 87 72 3d 13 9c 68 bd c7 36 d7 bc ea 20 d8 bd
       0.05921153 -0.05678947 -0.026271237 -0.10553153
000380 7e b0 a1 bd 6e a2 28 3c 87 7d e4 3d 6d 10 0e 3e
       -0.07894991 0.0102926325 0.11156755 0.13873453
000390 b6 17 25 3e cc 47 cf bd 7f ec d8 3d b5 53 0c 3e
       0.16122326 -0.10121116 0.10591983 0.13703807
0003a0 fa 8f cc bd 2b 44 6c bd 16 37 ad bd 76 62 a7 bd
       -0.09988399 -0.057682198 -0.084577724 -0.08173077
0003b0 61 15 02 3e 56 56 03 3d 6c 4a 3e 3d fc 23 99 3d
       0.12703468 0.03206476 0.046457693 0.074775666
0003c0 71 35 c8 bd 09 8c 9e bb 46 18 be 3d 7f dc c5 3b
       -0.09775818 -0.004838471 0.092819735 0.006038248
0003d0 0b 71 00 be d2 2c f5 3d fb 5a 05 3e 5e 9f 73 bd
       -0.12543122 0.119714394 0.13022988 -0.059478156
0003e0 00 90 1f 3d f9 33 99 b9 76 6f e2 bd 11 08 de bd
       0.03895569 -0.00029221157 -0.11056416 -0.10841382
0003f0 45 88 4d 3d e2 10 91 3d 3e 56 41 3d ee 59 71 3d
       0.050178785 0.07083298 0.047201388 0.058923654

bias f4 [9]
000000 20 e2 39 b0 7d 10 ba 30 2b e3 a4 b0 fd e7 93 30
       -6.762395e-10 1.3537967e-09 -1.1997136e-09 1.0761593e-09
000010 a4 c2 e3 2e 8b ab c8 b0 ae ec b6 2f 82 32 04 30
       1.035734e-10 -1.4600671e-09 3.3273778e-10 4.8093096e-10
000020 09 1e 2d ae
       -3.9362322e-11
