TissueClassifier_CRC100K/models/ann_resnet18_model_V1.pth (torch, 583990 bytes, 6 tensors)

weight f4 [224, 512]
000000 17 2a ba 3b 62 f6 10 bc c7 a0 0a 3c f3 4e cf bb
       0.005681287 -0.008847805 0.008461184 -0.00632655
000010 53 c1 d9 bb 3c 32 31 bc d7 86 8d 3b 9f 93 2a 3c
       -0.0066453605 -0.010815199 0.0043190527 0.010411172
000020 01 98 ab 3c 72 f3 65 bb c4 94 0e ba ed 91 60 3b
       0.020946505 -0.0035087732 -0.0005439038 0.0034266666
000030 64 b4 2d 3c ce c7 33 bc e4 af 61 3c b3 a0 02 ba
       0.0106020905 -0.01097293 0.013774846 -0.00049830525
000040 6c ac 44 3c 2f ce 45 3c d7 60 b8 bb 25 e9 93 bb
       0.012003999 0.012073084 -0.0056267786 -0.004513877
000050 e8 b9 19 3c 59 be a2 b9 e9 61 f9 bb e5 31 cd 3b
       0.009382702 -0.00031040868 -0.0076105488 0.0062620514
000060 c5 f7 58 3a c4 74 75 bb b9 9e 93 ba 0e 48 12 3b
       0.00082766666 -0.003745363 -0.0011262513 0.002232078
000070 cd 2d 09 bb 51 64 36 bc 2f 9e 9e bc 0b 5b 48 bc
       -0.002093184 -0.011132316 -0.019362537 -0.012228738
000080 44 9f dc bb b1 8b c8 3b f3 7d 37 ba ba 71 27 3c
       -0.006732853 0.006120168 -0.0006999664 0.010219986
000090 43 f6 20 ba 8c 32 08 3d 22 af 57 3a dc 8a 0b 3b
       -0.00061402115 0.03325133 0.0008227696 0.0021292483
0000a0 af 84 68 bb cb d7 3f 3c 28 11 46 3c 4b 9f a6 3b
       -0.0035479476 0.011709164 0.012089051 0.005084907
0000b0 a7 b7 19 bb 8f d9 b3 3a 46 62 52 b9 96 10 a1 3c
       -0.0023455413 0.0013721454 -0.0002006377 0.01966123
0000c0 84 dd d1 bb c9 72 53 3c 49 43 1d bc eb 95 ba 3b
       -0.0064045805 0.012905785 -0.009598562 0.005694141
0000d0 15 46 7e 3c 05 e9 63 b9 f5 40 06 bc ab 75 c0 bb
       0.015519639 -0.00021735214 -0.008194198 -0.005873402
0000e0 29 2d 77 3b 0f 38 37 3b f2 eb 52 3a cd 17 80 39
       0.0037716127 0.0027956998 0.0008046023 0.00024431795
0000f0 a5 d6 d1 bb fc 04 b6 ba d3 e7 d7 3b 0c 31 e3 3b
       -0.0064037615 -0.0013886984 0.006588915 0.006933337
000100 da ae 2e 3a b2 66 ab bb 6d ad a5 3b d2 41 63 bb
       0.0006663628 -0.005230748 0.0050560744 -0.0034676683
000110 6a 86 29 3b ee fb f2 b9 0c 43 da bb 98 dd d7 bb
       0.002586747 -0.0004634554 -0.0066608246 -0.0065876953
000120 91 95 ff 3b 5f 65 8e bb 34 25 5d 3b df fa 01 3b
       0.007799812 -0.0043455805 0.0033744099 0.0019833369
000130 9e 52 11 bc d7 8c 2b bc 2c 66 3c 3c 59 af 0a 3c
       -0.008869795 -0.010470591 0.011498969 0.008464658
000140 bc f8 b1 3c 45 23 38 3b c8 52 d7 3b 28 76 6c 3b
       0.021725051 0.0028097194 0.0065711476 0.0036081169
000150 26 77 e2 3b 33 e8 96 3b 4f 0d a3 bc 74 60 37 3b
       0.0069111763 0.004605317 -0.019903807 0.0027981075
000160 c3 70 4e bc ed 7d 3a bb d9 2c fb 3b 82 1a 0d bc
       -0.012600127 -0.0028456405 0.0076652584 -0.008612277
000170 00 7b 49 3c 2e 2c aa 3c d5 28 82 bb 95 28 24 bc
       0.012297392 0.02077302 -0.0039721527 -0.010019441
000180 63 ff 23 bb 57 01 73 3c 3c 9a 2b b9 c4 5c 1a bc
       -0.0025024049 0.014831862 -0.00016365288 -0.009421531
000190 6e 13 e7 3a 21 eb 43 ba b8 2e 62 3b 89 18 81 3b
       0.0017629692 -0.00074736966 0.003451271 0.0039396924
0001a0 ed ea 1b bc c9 53 31 bc b8 fd 93 b9 8b 71 d3 bb
       -0.00951646 -0.010823199 -0.0002822706 -0.0064527444
0001b0 a4 76 45 bb 90 ff b1 39 a3 0c 32 3b db 1f 11 bb
       -0.003013053 0.0003395048 0.0027168177 -0.0022144231
0001c0 a5 f2 26 bb ae a6 42 3b a5 c5 81 bb 40 e3 c1 3a
       -0.0025474217 0.00297014 -0.0039603286 0.0014792457
0001d0 0b 17 2c 3b a3 73 44 bb 3e 6f 83 bc 07 6c 8f 3c
       0.0026258852 -0.0029976151 -0.016044255 0.017507566
0001e0 02 58 1c bc cd a9 9c b8 ca 97 a8 3c e5 0b f2 3b
       -0.009542467 -7.4702875e-05 0.020580191 0.007386672
0001f0 80 9f 9b 3b 85 98 a1 bb 47 5f e1 bb f5 84 7c 3b
       0.0047492385 -0.004931512 -0.006877813 0.0038531397
000200 3e ad ac 39 80 c9 da 3b 17 d8 e1 ba 57 90 97 ba
       0.00032935472 0.0066768527 -0.0017230537 -0.0011563402
000210 97 d0 a0 3b 49 e4 d3 3b 2b 67 7c 3c ca 71 09 3a
       0.0049076783 0.0064664227 0.015405457 0.0005243091
000220 d2 17 fe ba 11 7b 36 3c b6 de 42 bb e5 5c 83 3c
       -0.0019385761 0.01113774 -0.0029734797 0.016035507
000230 6c 02 66 3b d5 16 7e bc 35 c0 36 bb 35 30 9a 3b
       0.0035096658 -0.015508373 -0.002788556 0.0047054538
000240 21 f6 0b bb 8f ad 39 bc e2 be 1c 3c 37 a0 d6 3c
       -0.002135642 -0.0113328835 0.009566994 0.026199443
000250 6a 42 67 bb 8e d4 36 bc 39 c1 32 3c 9a 61 67 bc
       -0.0035287389 -0.011159075 0.010910326 -0.014122391
000260 74 29 56 bb 11 c5 78 bc 09 a0 03 3c 26 ca d1 38
       -0.0032678517 -0.015183703 0.008033761 0.0001000355
000270 63 2b 4c bc 7b a6 e5 3a e5 09 53 3b d7 96 af bb
       -0.012461516 0.0017520929 0.0032201943 -0.0053585577
000280 83 cf 9e ba 37 69 9a bb ad 65 be 3b 46 cd 81 bc
       -0.0012116287 -0.0047122496 0.0058104605 -0.015844952
000290 ae 44 a9 3a 54 d4 64 3b 68 c9 73 38 35 a5 30 bb
       0.0012914145 0.0034916596 5.812329e-05 -0.002695394
0002a0 0d e3 88 bc 4d e8 e2 3b 03 38 f1 3b b2 26 4a 3a
       -0.016709829 0.006924665 0.0073614134 0.00077114545
0002b0 83 b1 03 bb a1 57 50 ba f6 f2 10 bb 85 ae 6e 3c
       -0.002009482 -0.0007947628 -0.0022117472 0.014567976
0002c0 7f a8 cc 3b f7 a9 5c bc 41 5c 72 3b 36 07 93 3b
       0.0062456722 -0.013468257 0.0036981257 0.0044869436
0002d0 89 d2 22 3c 21 b1 1a bb 90 59 7d 3a 48 6d 4c bb
       0.009937891 -0.0023604112 0.000966453 -0.0031193066
0002e0 52 f1 0b bb 33 a9 c6 3c 44 f5 76 bb 27 7a 02 bc
       -0.0021353555 0.024250602 -0.003768281 -0.007963694
0002f0 83 37 ba 3c 8a ae 46 3b 67 16 32 3a ef 6a af 3a
       0.022731548 0.0030316436 0.00067934993 0.0013383309
000300 e0 6c 00 3b 5a ec df bb c1 0e 33 bb 38 50 d1 3b
       0.0019596145 -0.006833595 -0.0027322026 0.0063877366
000310 b1 c4 1d bb 1b ca 17 bb 55 48 29 3b 62 04 29 3b
       -0.0024073536 -0.0023161236 0.0025830467 0.0025789966
000320 db 92 a2 3b 81 12 71 bb 84 15 af bb b1 8e bd 3a
       0.004961354 -0.003678471 -0.005343141 0.0014462081
000330 2d 91 35 bb 43 1d b5 bc 2f 15 51 ba f9 95 44 bb
       -0.002770494 -0.02210868 -0.0007975874 -0.0029996617
000340 45 2b 65 3b 39 79 2a 3c ca 5d 8c bb 3b 31 8c bb
       0.0034968418 0.010404878 -0.0042836415 -0.0042783297
000350 67 3d e4 bb fb 6b 48 ba 4f 75 14 3b f9 d1 8d 3c
       -0.0069653275 -0.0007645485 0.002265293 0.017312037
000360 a6 df 6d bb 50 b5 02 bb 65 b3 06 3c 5e 49 38 3a
       -0.0036296635 -0.0019944496 0.008221482 0.00070299755
000370 ac e2 ad 3a 51 eb f7 bb 04 05 a1 3a 2c 62 b8 3b
       0.0013266406 -0.0075658937 0.001228482 0.0056269374
000380 b1 94 06 3b ba 96 c2 bb b4 df 15 3b 39 32 01 3b
       0.0020535404 -0.005938378 0.0022868933 0.0019713773
000390 4d f3 31 3a 89 b3 48 bb d3 18 a9 3a f9 83 3d bb
       0.0006788269 -0.003062459 0.0012901075 -0.0028917773
0003a0 44 c2 49 3b 06 9a 68 3c 4c 5c 9a 3b ce 84 ea 3b
       0.0030785957 0.014196878 0.0047107097 0.007156945
0003b0 64 ad 85 bc ff 9e a7 bb 8b d2 bc bb 39 c5 db ba
       -0.01631803 -0.0051153894 -0.0057624034 -0.0016767151
0003c0 4c af 70 3b 22 de d0 3b ee 03 11 bb 68 0d 8b 3c
       0.0036725579 0.0063741365 -0.0022127586 0.016974166
0003d0 78 51 02 bc fb b0 ef 3a 72 2c c8 3b ec bc 26 3a
       -0.007953994 0.0018286997 0.006108814 0.0006360549
0003e0 7a 3d d5 bb 9a 30 ca 3b e7 aa 1f 3c dc 46 61 bc
       -0.0065075727 0.0061703445 0.009745336 -0.013749804
0003f0 4a ad 99 3c 7f 90 15 3c 43 90 2c 3b 07 96 4c bb
       0.018759388 0.009128689 0.0026331104 -0.0031217353

bias f4 [224]
000000 36 3f 4e 36 79 62 2e 37 54 1b c6 34 18 a0 de 36
       3.0733186e-06 1.0394136e-05 3.6900258e-07 6.634753e-06
000010 48 68 6f 36 18 a2 95 36 79 a8 15 37 a9 69 f9 36
       3.5674475e-06 4.4594162e-06 8.920318e-06 7.4330787e-06
000020 85 c5 f6 35 04 24 2d b6 8f 60 99 b5 6d 2f f0 34
       1.8385914e-06 -2.5799973e-06 -1.142749e-06 4.473799e-07
000030 a2 16 df 35 09 52 31 b5 0a 43 63 36 cc 37 c4 b4
       1.6621382e-06 -6.6057015e-07 3.3864658e-06 -3.6548442e-07
000040 a2 bc 69 36 f0 77 2a 36 e6 43 77 b7 19 2a 19 37
       3.4829504e-06 2.5401787e-06 -1.4738156e-05 9.129312e-06
000050 72 5c 0e 37 b5 44 f3 35 08 90 b6 b5 6b f9 0b 36
       8.485384e-06 1.8124907e-06 -1.3601975e-06 2.0857794e-06
000060 ec 93 72 b6 28 c8 e2 b6 ce b5 01 37 30 78 0e b7
       -3.6146912e-06 -6.758626e-06 7.731329e-06 -8.491843e-06
000070 d1 c2 c1 b4 4b 65 7b 36 b0 83 cf b7 90 7d a7 b6
       -3.60908e-07 3.7460875e-06 -2.4737645e-05 -4.9916052e-06
000080 9f 3b 17 b6 41 c2 a7 35 5b 06 c0 37 a5 e2 60 36
       -2.2535457e-06 1.2499005e-06 2.2891143e-05 3.3510526e-06
000090 ac 4f 64 35 7e 44 d8 b6 54 77 e2 36 c3 2b 01 35
       8.5052557e-07 -6.445275e-06 6.7492165e-06 4.8119927e-07
0000a0 8a aa b3 b6 a3 2c 72 b5 40 dc 05 37 98 58 9b 36
       -5.354469e-06 -9.021698e-07 7.978699e-06 4.6296736e-06
0000b0 29 5f 8c 36 7b 13 ea b4 f4 74 a5 37 00 e7 b1 33
       4.1834032e-06 -4.360007e-07 1.9723993e-05 8.2842234e-08
0000c0 ac b5 f5 b6 70 54 76 34 aa 3e 70 b5 e8 15 78 b5
       -7.3227184e-06 2.2941254e-07 -8.9498155e-07 -9.241908e-07
0000d0 30 95 0a b6 d5 fe 92 36 f3 a1 63 36 a6 5f c3 35
       -2.065044e-06 4.3808054e-06 3.3919903e-06 1.455647e-06
0000e0 43 55 1e b5 e5 06 91 36 17 21 86 b6 39 b0 e8 b5
       -5.898366e-07 4.3221394e-06 -3.9973634e-06 -1.7336635e-06
0000f0 f3 ad 14 b5 5d cd f9 b5 d9 5e f0 b7 64 c7 b5 b6
       -5.5387426e-07 -1.8611714e-06 -2.8654396e-05 -5.4174325e-06
000100 39 90 8c b5 82 3d 58 36 63 da f4 b5 f3 22 6d b7
       -1.0472787e-06 3.222231e-06 -1.8242976e-06 -1.4134438e-05
000110 14 f5 06 36 18 cd c3 35 a5 c5 f6 35 93 19 4b 37
       2.011021e-06 1.4588322e-06 1.838595e-06 1.2105697e-05
000120 00 72 3d 34 66 a4 4e b4 70 59 d0 b6 1f 3d b6 35
       1.764347e-07 -1.9245053e-07 -6.209295e-06 1.3577845e-06
000130 9a 81 10 b6 0c 68 c3 b6 73 0f f6 33 b8 bf 90 35
       -2.153311e-06 -5.8235655e-06 1.1458078e-07 1.0784634e-06
000140 31 4b e1 36 47 61 6c b6 36 7e 40 35 7c 89 ba b5
       6.714276e-06 -3.5223363e-06 7.1709235e-07 -1.3898093e-06
000150 a5 54 86 b7 0c fe a8 b6 55 67 1c b6 c6 57 b5 b7
       -1.601346e-05 -5.036365e-06 -2.3305959e-06 -2.1617754e-05
000160 e8 39 34 b5 3e 88 c3 34 a9 1e 9e b6 6b 1e 2b b6
       -6.713949e-07 3.642071e-07 -4.7123362e-06 -2.5498691e-06
000170 92 82 b0 b6 c4 62 07 36 66 4f 45 36 dd f7 86 36
       -5.260409e-06 2.0174057e-06 2.9401504e-06 4.0223663e-06
000180 e7 35 ac b4 fb bd 81 35 76 bf 03 37 9c 96 39 36
       -3.2076716e-07 9.66654e-07 7.852786e-06 2.7654814e-06
000190 1d 88 a7 35 6c 62 04 35 95 8d 30 b6 16 34 a9 b5
       1.2482084e-06 4.9317055e-07 -2.6308455e-06 -1.260664e-06
0001a0 91 9b f5 36 0d 55 c3 b6 85 d3 0c b7 74 63 cf 35
       7.3196793e-06 -5.821354e-06 -8.3938985e-06 1.5451647e-06
0001b0 9c b6 ff b5 5b 79 d1 b6 03 c2 03 b6 84 a4 cf b5
       -1.9052127e-06 -6.242813e-06 -1.963345e-06 -1.5470582e-06
0001c0 4a e1 84 36 ee 41 66 35 b5 46 a1 b6 12 dc 42 b7
       3.9601337e-06 8.577762e-07 -4.8064053e-06 -1.161454e-05
0001d0 81 71 88 37 88 e0 f2 36 ff 83 05 36 af 5e 27 37
       1.6265318e-05 7.238301e-06 1.9895376e-06 9.976021e-06
0001e0 85 8d 67 36 00 3e 20 b7 00 eb b3 36 a9 50 15 36
       3.4504058e-06 -9.551179e-06 5.3619733e-06 2.224968e-06
0001f0 55 9c 04 b4 4b ae 2d b5 9f bf 09 b7 8a d4 c0 34
       -1.2350331e-07 -6.470115e-07 -8.210452e-06 3.591743e-07
000200 20 ef 6b b6 f3 20 79 b6 2e 40 2f 36 ee b6 af b5
       -3.5156918e-06 -3.712307e-06 2.611439e-06 -1.3091756e-06
000210 7a 39 d6 b6 99 2c ca b5 99 53 6d 35 b0 59 2e 37
       -6.384388e-06 -1.5063152e-06 8.841103e-07 1.039209e-05
000220 29 21 0f b7 01 b0 fc b6 e9 1e 99 36 bb d2 aa b4
       -8.531185e-06 -7.530675e-06 4.5633537e-06 -3.1818294e-07
000230 3f 31 e4 b5 8b fc b0 36 01 6f 50 35 c3 6f ea b6
       -1.7001656e-06 5.2746086e-06 7.764757e-07 -6.986754e-06
000240 09 fd bf 34 52 d7 81 b5 b9 3d be 34 21 ab af b7
       3.576063e-07 -9.673915e-07 3.5435167e-07 -2.0941314e-05
000250 57 96 e9 b6 93 b6 50 36 9b 19 2a 36 2e a7 05 37
       -6.961443e-06 3.1100687e-06 2.5346878e-06 7.966342e-06
000260 d6 61 d5 36 81 2e 88 b6 5f 8e 8d b6 65 88 a7 35
       6.3592843e-06 -4.0585296e-06 -4.2187016e-06 1.2482166e-06
000270 39 c7 99 b5 db bf c8 33 d3 71 42 36 f0 38 cc 36
       -1.145737e-06 9.348124e-08 2.8974507e-06 6.086302e-06
000280 06 4b 89 b5 97 64 bc 35 c4 96 8f b7 5a 1b 15 36
       -1.022913e-06 1.4036367e-06 -1.7117134e-05 2.221865e-06
000290 e8 42 52 b6 d2 ed b1 b6 26 90 9b 36 2b 90 19 33
       -3.1331383e-06 -5.302697e-06 4.636141e-06 3.575421e-08
0002a0 1c 44 e9 36 b7 d3 77 36 e4 97 ae b3 05 9d 28 b6
       6.95187e-06 3.6929102e-06 -8.130135e-08 -2.5125348e-06
0002b0 87 d4 51 37 41 de 2a 36 a8 61 80 b5 2f f0 2f b6
       1.2506854e-05 2.5461343e-06 -9.565165e-07 -2.6216837e-06
0002c0 1d 6e 40 36 af 3c 37 b5 8a 4e 0e 37 ec 98 56 35
       2.8674324e-06 -6.826112e-07 8.482146e-06 7.9943743e-07
0002d0 68 c2 83 b5 78 5d 53 36 33 e4 64 36 fe ed b6 34
       -9.81684e-07 3.1495856e-06 3.4107477e-06 3.4073304e-07
0002e0 15 c9 13 36 84 37 dd b6 44 d3 55 b6 e9 ad 3d b7
       2.2021752e-06 -6.592776e-06 -3.1862446e-06 -1.13057695e-05
0002f0 1c 25 df 34 73 9e ad 36 a3 91 de 36 72 8d de 36
       4.1563987e-07 5.1742477e-06 6.63307e-06 6.632582e-06
000300 76 d3 2a 36 74 7e d4 b6 f1 ee f9 b6 6b 5f ff 32
       2.545506e-06 -6.3328134e-06 -7.4485947e-06 2.9729298e-08
000310 e1 6e b3 b5 28 d5 20 36 a5 0f f7 35 aa 09 1f b6
       -1.3368809e-06 2.3965931e-06 1.8407487e-06 -2.3698472e-06
000320 72 88 86 b5 f6 e0 2a b4 bd 92 bc b5 76 e6 62 b5
       -1.0023489e-06 -1.5914324e-07 -1.4049798e-06 -8.4526926e-07
000330 48 63 1f 37 f3 a4 21 b6 1f e8 91 b3 e7 69 58 b6
       9.500254e-06 -2.4086883e-06 -6.794311e-08 -3.2248151e-06
000340 86 4e 02 36 55 b7 fc 35 68 ba e6 35 b3 fa df 34
       1.9417216e-06 1.882882e-06 1.7190587e-06 4.1719395e-07
000350 b5 e6 96 36 6f 01 ab 34 59 24 86 36 52 78 5a 37
       4.497206e-06 3.1852275e-07 3.9977426e-06 1.3021827e-05
000360 4a 3f 39 b5 8e 1a 21 b7 45 c6 e8 b6 23 0b 16 35
       -6.900997e-07 -9.602531e-06 -6.9372204e-06 5.589556e-07
000370 fa 64 7b 35 62 e5 0c b7 ec 6d 0c b6 0a 54 8f 37
       9.3651727e-07 -8.398058e-06 -2.0925609e-06 1.7086062e-05

weight f4 [128, 224]
000000 b9 e3 be 3c 96 a2 ad 3c ef 64 3b b9 2c 90 66 bc
       0.023301946 0.021195691 -0.0001787131 -0.014072459
000010 a6 32 8b 3c 5f 4d 62 bb 7c 18 28 3a aa 48 ca 3b
       0.016991924 -0.003453098 0.000641234 0.006173213
000020 39 39 d1 ba a4 01 9e 3c 5e 9e 3a bc 47 d5 36 3c
       -0.0015962488 0.019287892 -0.011390297 0.011159248
000030 b7 29 1e 3c 86 a6 c6 3c 25 2a 10 3c b5 e7 46 bb
       0.0096535 0.024249326 0.008799111 -0.003035051
000040 42 72 0b 3b 81 44 e9 bc 3b ef b8 3c 98 b3 11 bc
       0.002127782 -0.028475048 0.022575011 -0.008892916
000050 b4 87 c9 3c 90 06 20 3c a8 5e 46 bc ef 08 be 3c
       0.024600841 0.00976719 -0.012107529 0.02319762
000060 b3 c3 ab 3c 5d f8 83 3c 43 dd 52 bc d8 b8 b6 3c
       0.02096734 0.01610964 -0.012870136 0.022304937
000070 6a d6 a6 3c 2f 73 ad bc 22 54 87 3c 7e 33 bf 3c
       0.020365912 -0.021173088 0.01651961 0.023339983
000080 4f 97 27 3c ed d7 87 3b 31 d1 d2 bb 15 75 2c bc
       0.010228946 0.0041456134 -0.006433629 -0.010525961
000090 9e 6b 38 bc 1e 66 9b 3c af 64 b3 bb 6a 4b af bb
       -0.011256127 0.018969592 -0.005474649 -0.005349566
0000a0 4f 88 9d 3c d2 a3 cd 3b 90 f8 2a 39 da 85 a9 bc
       0.019230036 0.0062756324 0.0001630506 -0.020693708
0000b0 9c 7a aa bb 1b b7 58 bb c8 33 31 bc fd 68 40 bb
       -0.0052026045 -0.0033068124 -0.010815568 -0.0029359453
0000c0 85 e8 54 39 64 57 b1 bc 35 81 f4 bc fe f5 2b bc
       0.00020304516 -0.021648116 -0.029846767 -0.010495661
0000d0 a1 b9 96 bc c8 45 a0 bb 8c 5b e3 bc a0 9a 15 3c
       -0.018399062 -0.004891131 -0.027753614 0.009131104
0000e0 9f f3 5a 3c 6b f4 5a 3a 31 b8 5a 3c 2f 18 9b 3c
       0.013363748 0.0008352461 0.013349579 0.01893243
0000f0 82 94 e0 bc 77 f4 9a ba bb d9 bb 3b e8 75 1d 3c
       -0.027414564 -0.0011822124 0.0057327426 0.009610631
000100 3e 31 0d bc dd ec aa 3c a9 63 a3 3c 4c 39 df 3c
       -0.008617697 0.020864898 0.019944983 0.027249001
000110 55 64 2e 3c b4 67 b5 3c c9 61 b0 3c 7d 37 d8 bb
       0.010644038 0.022144176 0.021531003 -0.0065984116
000120 30 2b 7f 3c 42 d1 ad 3b 46 ec b9 bb aa e0 97 3c
       0.015574262 0.0053044865 -0.005673918 0.018539745
000130 90 78 42 3c 98 8c d1 39 44 f8 9b 3a 20 ce 13 bb
       0.011869565 0.00039968337 0.001189955 -0.002255328
000140 88 ff 4e 3b 3b c5 b2 b9 04 60 d2 bc bd 96 cb bb
       0.0031585414 -0.00034097754 -0.02568055 -0.0062130378
000150 cb 42 d3 3c 70 d4 7f 3b 60 89 c5 3c 3c 3a 0c bc
       0.025788685 0.0039036535 0.024113357 -0.008558806
000160 fb 51 aa bc a1 06 59 3c c5 89 5d 3c 9d 6b 0b 3c
       -0.020791044 0.013246209 0.013521616 0.008509544
000170 71 46 d6 3c b7 35 9b bc b3 f5 38 bc 1b a0 d5 3c
       0.026156636 -0.018946512 -0.011289048 0.02607732
000180 b1 21 22 3c 8a 64 b7 3c 08 a7 a7 3c e3 1f 23 bb
       0.009895728 0.022386808 0.020465389 -0.0024890832
000190 7e 1a 7b 3c 5b 8a 24 3c 20 81 67 3b e3 86 ef 3b
       0.01532614 0.010042752 0.0035324767 0.007309781
0001a0 d2 50 b7 bc 07 92 b7 bc 7b 05 68 3c 82 83 72 3c
       -0.022377405 -0.022408498 0.014161463 0.014801862
0001b0 82 10 35 3c d0 46 ae 3b 25 89 b5 3c a2 d6 d3 3c
       0.011051299 0.0053185 0.022160122 0.02585918
0001c0 c7 66 6c bc 50 0d 00 bc d5 3c 31 bc 59 61 8b 3c
       -0.014428801 -0.007815674 -0.010817726 0.017014192
0001d0 86 ab 0d bc d7 72 15 3b 7a c4 1c bb 94 6e b3 3c
       -0.008646851 0.0022804046 -0.002392082 0.021903314
0001e0 9a 66 60 bc 45 9a de bc fd fd df 3c 41 7a 50 bc
       -0.013696337 -0.02717317 0.02734279 -0.01272446
0001f0 d1 22 1e 3c 9c c9 74 3c 30 2e ce 39 b1 53 dc 3b
       0.009651856 0.014940646 0.00039325794 0.006723844
000200 6f ca e2 3c b1 a9 09 bd b6 27 cc 3c 3a b6 ca 38
       0.027684418 -0.033609096 0.02492128 9.666053e-05
000210 fc 71 24 bc 87 33 56 bc 89 82 90 bc a7 2a d6 bc
       -0.010036942 -0.0130738085 -0.017640369 -0.026143385
000220 84 7e a8 3c 99 de fe bb 54 e7 cb bb a2 db f6 b8
       0.02056814 -0.0077780006 -0.006222645 -0.00011771104
000230 69 5f 77 bc 09 f0 a9 3b c3 2c a0 3b 44 5c 3f 3c
       -0.015098431 0.005186085 0.0048881485 0.011679713
000240 b0 cd c3 3c e7 9d cd 3c e7 13 2d 3c a1 92 8f bb
       0.02390179 0.025099708 0.010563827 -0.004381493
000250 8c af 5c 3c 7f 75 af bc b3 22 cf bb 99 1f 04 3c
       0.013469588 -0.021418331 -0.006321275 0.008064174
000260 06 d4 a6 bc 0b 86 b0 3c 82 2f 43 3c 14 1c bd bc
       -0.020364773 0.021548292 0.011913182 -0.023084678
000270 50 c5 c5 3b bf 47 a7 3b 66 10 c3 3c 22 00 d1 bc
       0.0060354844 0.0051049883 0.02381153 -0.025512759
000280 66 cc 96 3c 2f db 3a 3c ca de 07 3d 0e 0c 1b 3d
       0.018408012 0.0114047965 0.033171453 0.037853293
000290 6e 78 1f 3c 83 22 21 bc 6c d9 12 ba 4d 7b e3 bb
       0.0097333025 -0.009834888 -0.00056018564 -0.006942189
0002a0 ab c7 de 3c 88 77 4b bb e7 e5 9a 3c 56 4e fd ba
       0.027194818 -0.0031046588 0.018908454 -0.0019325714
0002b0 80 a7 0a bb 33 c5 9e bc 88 0e 15 3c 0e b1 48 3c
       -0.0021156967 -0.019381141 0.009097703 0.012249244
0002c0 4b 10 d4 bc 58 ca 0f bc 60 16 95 bc ee fe 5c bc
       -0.025886675 -0.00877627 -0.018199146 -0.013488514
0002d0 6e af 25 3c 66 f5 bc 3b c0 4e 3b 3c 45 3d a7 3a
       0.0101126265 0.0057665585 0.01143235 0.0012759349
0002e0 37 28 3a 3c 47 f3 0b 3d e1 4b 44 3c 36 d7 eb 3b
       0.011362127 0.034167554 0.011980982 0.007197286
0002f0 f4 e9 ac b9 50 eb e5 3c 5b b0 09 3c de 55 6f bc
       -0.00032980705 0.028066307 0.008403863 -0.014607875
000300 9a b8 d5 3c 7d e9 26 3b eb 96 b3 3c 33 47 16 3b
       0.026089001 0.002546876 0.02192255 0.0022930622
000310 2e 60 ae bc ca 33 14 bc a1 48 ec bb 47 0a ba bc
       -0.021286096 -0.009045551 -0.0072108065 -0.022709979
000320 e7 db 50 3a 97 9d 9f 3c 04 a6 92 3c 57 83 a3 3c
       0.00079673383 0.019484324 0.017901428 0.019960089
000330 88 60 af 3c 2d c7 0d 3d a6 03 37 bc f6 c4 de bc
       0.021408334 0.034613777 -0.011170303 -0.027193528
000340 09 7d 4b 3c d5 f0 41 bc 80 f7 2e bc 28 05 5d bc
       0.012419947 -0.011837204 -0.010679126 -0.013489999
000350 ea a4 bb 3b b2 5c f6 3a fa ef 51 bc c3 ce 6e 3c
       0.0057264464 0.0018795936 -0.0128135625 0.014575663
000360 4d 6d d6 3c 01 6c ea bc 3d 75 63 bc 35 8c 9f 3c
       0.026175166 -0.028615953 -0.013882932 0.019476036
000370 1a 13 08 bb 62 36 2f 3c 1b 9d 8d 3c 75 07 28 bc
       -0.0020763339 0.010694118 0.017286828 -0.010255684
000380 0c 92 af bc 7e 4d a0 bc cf e7 84 3c d0 c2 1a 3d
       -0.021431945 -0.019568201 0.016223816 0.037783444
000390 87 59 f8 3b 10 00 15 3d 35 9f 6d 3b bf 7f 22 bd
       0.007579032 0.036377013 0.0036258225 -0.03967261
0003a0 06 70 91 3a d8 fe 55 bc 6f 5b be 3b ff e0 10 bc
       0.0011096008 -0.013061248 0.0058092396 -0.008842706
0003b0 f8 f4 8f 3c 41 f8 3f bc 49 2f 50 3c 3f f9 ef bc
       0.017572865 -0.011716903 0.012706586 -0.029293654
0003c0 97 de f4 39 9c 7c 04 3d a9 12 7a bc bf 8a 75 3b
       0.0004670515 0.0323454 -0.015263238 0.0037466732
0003d0 29 b6 c6 bc b8 ed 92 3c e3 3d 4c bc e7 60 36 bd
       -0.024256783 0.017935619 -0.012465927 -0.044526007
0003e0 07 36 99 bc be ba b6 3c 60 19 03 3d 8b 13 a7 bc
       -0.01870252 0.022305842 0.03200662 -0.020395061
0003f0 64 af dc bc 82 da bd 3c 91 ad 29 bc b4 7e 57 bc
       -0.026939102 0.023175482 -0.010356323 -0.013152767

bias f4 [128]
000000 2f 03 65 35 59 c0 c7 36 c5 67 38 b6 a3 93 d2 35
       8.531378e-07 5.9530544e-06 -2.7478538e-06 1.5689187e-06
000010 e1 86 41 b7 91 96 12 37 b7 0a 02 37 30 d3 3a 36
       -1.15351e-05 8.737335e-06 7.751099e-06 2.7839087e-06
000020 3d 79 38 36 d6 00 5a b6 32 66 a1 b6 4c 46 33 b5
       2.7488707e-06 -3.2485018e-06 -4.810071e-06 -6.678499e-07
000030 f0 44 82 36 b0 35 16 37 04 19 3c 37 76 7b 66 37
       3.8823273e-06 8.953197e-06 1.1211498e-05 1.3737814e-05
000040 3c 1b b8 b6 29 20 fb b5 d8 31 23 36 cf a6 ff b5
       -5.486798e-06 -1.8710317e-06 2.4317906e-06 -1.9047528e-06
000050 73 77 66 36 03 fc bc b6 b6 24 33 35 29 55 1f b4
       3.43422e-06 -5.6321746e-06 6.673612e-07 -1.483901e-07
000060 f8 45 81 36 c2 db dc 36 48 df 7a 35 39 93 b6 37
       3.852645e-06 6.582094e-06 9.3457174e-07 2.1764647e-05
000070 d0 23 82 b6 0e 97 8b 36 33 27 b3 b6 57 06 d5 35
       -3.878471e-06 4.160108e-06 -5.339179e-06 1.5871582e-06
000080 e0 02 02 b7 f4 20 84 b6 a0 4b 14 b6 27 f8 18 36
       -7.749273e-06 -3.937743e-06 -2.2097738e-06 2.2794209e-06
000090 b4 24 b5 36 f1 f7 a3 34 19 17 a1 36 de 61 f4 35
       5.398493e-06 3.0541517e-07 4.800863e-06 1.82079e-06
0000a0 54 34 0d b6 93 78 b7 35 6f 34 8b b5 94 a1 0f b6
       -2.1041096e-06 1.3669654e-06 -1.0371567e-06 -2.1402711e-06
0000b0 da 76 ba 35 2b 67 f0 b7 84 7c 98 36 4a 66 b1 b5
       1.389267e-06 -2.865827e-05 4.5444485e-06 -1.3217298e-06
0000c0 d9 cc ee 35 f8 dd c1 b6 aa 11 df b6 a5 b9 1e b7
       1.7792e-06 -5.777689e-06 -6.6479743e-06 -9.460758e-06
0000d0 f4 51 dc 37 f6 6e d4 34 75 d0 29 34 cf 0c e2 35
       2.6264206e-05 3.9568812e-07 1.5815188e-07 1.684204e-06
0000e0 4d 44 f7 b4 cd 48 da 36 8e 39 0b b3 ee 71 ad b5
       -4.605703e-07 6.5053814e-06 -3.2415805e-08 -1.2922662e-06
0000f0 5b 23 95 b6 51 94 37 35 67 c4 e8 b6 d2 91 8f b6
       -4.444662e-06 6.838864e-07 -6.937003e-06 -4.278708e-06
000100 93 a2 2f 35 9c 90 cd b6 97 af 49 35 d8 7c 11 b7
       6.5429157e-07 -6.126311e-06 7.513385e-07 -8.671741e-06
000110 da 62 3e 35 59 20 fe b4 15 77 25 b7 c2 bb 65 35
       7.0924364e-07 -4.7334723e-07 -9.862492e-06 8.558237e-07
000120 11 a2 8e 34 bb c0 f2 35 5e 3e c0 36 29 7c 7d 36
       2.656748e-07 1.8086497e-06 5.7293064e-06 3.7772209e-06
000130 af 5c 6d 35 78 58 66 b5 7c 01 49 36 a5 de ac b6
       8.842425e-07 -8.5810416e-07 2.9952198e-06 -5.1519187e-06
000140 2d fa 08 b6 c3 da c9 36 e7 b2 36 b7 95 03 35 35
       -2.04112e-06 6.015734e-06 -1.0889699e-05 6.7432967e-07
000150 c8 19 8c b6 97 1a 44 b6 d4 13 58 35 c4 86 0b 37
       -4.1753265e-06 -2.9221753e-06 8.0495124e-07 8.316423e-06
000160 2f ae 84 34 8f 15 4d 36 66 1f ed b3 bb 45 62 36
       2.471365e-07 3.055993e-06 -1.1041884e-07 3.3717213e-06
000170 07 d2 b7 b5 42 65 86 b6 f1 3f dc b5 db 9d 63 b6
       -1.3695688e-06 -4.005299e-06 -1.6409887e-06 -3.391752e-06
000180 8c a2 28 b6 18 40 b1 36 db ba 3e 35 08 36 6b 37
       -2.5128566e-06 5.2824726e-06 7.1052426e-07 1.4019672e-05
000190 ec a9 b1 35 eb 77 84 35 0a 78 3c 36 b7 b6 0b b6
       1.3236981e-06 9.869667e-07 2.8084055e-06 -2.0818968e-06
0001a0 0c a6 cf b6 fa 5c 5d b7 f4 e2 b1 b6 8b 9c a0 37
       -6.188411e-06 -1.3194274e-05 -5.301432e-06 1.9146382e-05
0001b0 63 76 a8 32 66 cf 0c b6 82 34 56 b7 4b e3 97 36
       1.961161e-08 -2.0982347e-06 -1.2767619e-05 4.526611e-06
0001c0 37 90 80 37 2e 39 88 36 2d cb ae b5 2f 7b c4 36
       1.5325944e-05 4.0597724e-06 -1.3023142e-06 5.8555956e-06
0001d0 07 56 a6 36 d2 67 b8 b4 e3 2c 84 36 89 df 02 b4
       4.9572004e-06 -3.434821e-07 3.939132e-06 -1.2188515e-07
0001e0 e2 46 87 35 97 8a 7a 36 80 42 a2 b5 21 00 0b b7
       1.0078913e-06 3.7333573e-06 -1.2089295e-06 -8.285076e-06
0001f0 57 76 db 35 ca de ed 36 ec d5 d4 b6 83 ea 58 b7
       1.6351213e-06 7.0890865e-06 -6.342996e-06 -1.2929205e-05

weight f4 [9, 128]
000000 74 6c b0 3d 0c 00 34 bd b6 6a b9 3d 77 18 de bd
       0.08614436 -0.043945357 0.090535566 -0.1084451
000010 b1 54 bf bc f9 5d bc bd 76 fc de 3d 56 5f 90 bd
       -0.023355814 -0.09197611 0.10887997 -0.07049434
000020 19 b9 8d bd f9 12 e4 3d 24 8f 3c bd eb 7c cb bd
       -0.0692007 0.11136431 -0.046034947 -0.099359356
000030 88 1e 1f 3e 10 cd b0 bd 5a 98 9f bc ab cb b9 3b
       0.1553899 -0.086328626 -0.019481827 0.005670031
000040 cc f4 61 bd a7 35 86 3d b6 b1 89 bd 8a 53 e8 3d
       -0.055165097 0.06553202 -0.06723349 0.11344059
000050 43 fd 0d bd 2a 29 aa 3d 0e a1 2d bd a8 ce cc bd
       -0.034665357 0.08308633 -0.04238992 -0.10000354
000060 1c 5c b4 bd 5f fb 4b 3c b3 bc 86 bd 0a e8 ee 3d
       -0.08806631 0.012450068 -0.0657896 0.11665352
000070 fb c8 79 3d 10 4b da 3c 2f 1e 48 bd 30 1b 41 bd
       0.060982686 0.02664712 -0.04885691 -0.04714507
000080 d8 e8 ac bd 7c 69 1a be b3 e7 ac bd 75 8a 54 3d
       -0.08442849 -0.15079302 -0.084426306 0.051889855
000090 ca e5 93 bd 3f 8e 0b 3e b4 f8 f8 3c 1d c6 30 bd
       -0.07221563 0.13628481 0.030392028 -0.043157686
0000a0 08 7c 23 3e fe ae 14 3e 49 9d b9 bd e8 89 8b bd
       0.15965283 0.14519879 -0.09063203 -0.06813413
0000b0 f9 fe af 3d 31 16 ab 3d db 8c a3 bd 4c 8e f3 3d
       0.08593554 0.08353842 -0.079858504 0.11892375
0000c0 f2 f0 72 3d eb 28 9e 3d 41 34 05 3e 00 51 3e 3d
       0.059311815 0.07722648 0.13008215 0.046463966
0000d0 14 b6 5a bd 34 ae 1f be 70 e2 ff 3d 0a 5f 91 bd
       -0.0533963 -0.15593797 0.124943614 -0.070982054
0000e0 27 e1 9a bd 97 32 b1 bd 24 49 94 3c d0 cf 5b 3d
       -0.07562476 -0.08652227 0.018101282 0.053664982
0000f0 cc d6 f8 3d 6e 4f df 3d 01 b0 fb 3d 25 f4 a3 bd
       0.12150344 0.10903822 0.122894295 -0.08005551
000100 d7 16 e3 bd b6 df 71 bd 08 49 68 bd 73 60 fb bd
       -0.11088341 -0.059051238 -0.056710273 -0.122742556
000110 66 c4 ad bd b1 d5 a3 3d ea 52 94 3d d0 78 6f bd
       -0.08484726 0.07999743 0.07242377 -0.058464825
000120 d5 7b ec 3d dc 29 85 bd 62 83 ce bd d5 20 c3 3d
       0.115470566 -0.06502125 -0.10083653 0.095277466
000130 88 b1 89 bd 5c 71 a7 bd e0 b3 f9 3d 5e a7 36 3d
       -0.067233145 -0.081759185 0.121925116 0.044593208
000140 73 66 08 3e 65 91 4f 3d 4f 70 9f bd 37 45 f0 3d
       0.13320331 0.05067577 -0.07785093 0.11731952
000150 bb 94 aa bd 2c 19 ce 3d c8 d2 bd bd 74 ab 35 bd
       -0.08329149 0.10063395 -0.09268719 -0.044352964
000160 19 38 9a 3d 60 35 a0 bd c7 a0 8a bd a9 b7 bc bd
       0.07530231 -0.078226805 -0.06768947 -0.09214718
000170 38 a6 b6 bd 27 51 43 3c 5e f2 e6 bd 6b b8 81 bd
       -0.089184225 0.011921204 -0.112766966 -0.06334003
000180 80 9b c2 3d 4e 56 6f 3d bb d6 ae 3d 2f 3a db 3b
       0.095023155 0.058431916 0.0853705 0.0066902856
000190 1c f5 a7 3d 79 a3 b2 bd 0a 69 8b bd db 26 6d bd
       0.08201048 -0.08722586 -0.06807144 -0.057898384
0001a0 54 04 cc 3d 6f 77 92 bd 1c a5 96 bd c9 ae 27 bd
       0.09961763 -0.071516864 -0.07355711 -0.040938172
0001b0 ab d7 d0 3d fa a9 16 3e 97 17 5c bd 83 fc aa bd
       0.101973854 0.14713278 -0.053733435 -0.08348944
0001c0 8a b9 a1 3d 94 55 39 bd 4d 01 86 bd 2f 6a fb bd
       0.07896717 -0.04524763 -0.06543217 -0.12276112
0001d0 b0 ed 73 bd ea 98 90 bd 3a 5e 20 3d 17 f8 4f bc
       -0.05955285 -0.07060416 0.03915236 -0.012693427
0001e0 3a 55 96 bd 92 bb b3 3c 3b a6 a0 bd 56 b0 96 3d
       -0.073404744 0.021940026 -0.07844206 0.07357852
0001f0 e5 46 d1 3d fb e2 15 3e a8 f4 67 bd fe dd 8e bd
       0.102186 0.14637367 -0.056629807 -0.069759354
000200 24 1d 33 bd 15 42 8f 3c e5 cc d5 bc c8 80 d1 bd
       -0.043728963 0.017487565 -0.026098678 -0.10229641
000210 7b 74 18 3d 5a 6c d9 3d f3 13 11 3e f8 a3 5b 3d
       0.03722046 0.106163695 0.14167766 0.05362317
000220 58 3d fd 3d d8 9a b1 bd 5f 87 71 bd 2d 53 9f bb
       0.12365216 -0.08672112 -0.05896699 -0.0048622102
000230 52 38 94 bd d9 42 bf 3d 0b 47 73 bd 48 7d 08 3e
       -0.07237305 0.09338922 -0.059393924 0.13329041
000240 75 f5 3e 3e 65 58 96 bd 14 1f af 3d 37 3a 43 bd
       0.18648322 -0.07341079 0.085508496 -0.04766294
000250 05 6f 6f bd cc 39 2c bd d1 2f c7 3d 9f e0 88 bd
       -0.058455486 -0.042047307 0.09725917 -0.06683468
000260 54 d5 c9 bd 74 15 14 3e e4 3c 70 bd 27 2a b7 3d
       -0.09855142 0.14461309 -0.05865182 0.08943587
000270 b5 7d 62 bd 15 9f 4f bd d5 63 38 bd 45 70 8a bd
       -0.055295665 -0.05068882 -0.045017082 -0.06759695
000280 5d dc 48 bd 59 4f 29 bd 1d 7a a2 bd 20 1f 02 be
       -0.04903828 -0.041335437 -0.079334475 -0.12707186
000290 bd 81 eb 3d 6f bf 99 bd 01 3a d1 bd 2d 32 76 bd
       0.11499355 -0.07507216 -0.102161415 -0.060106445
0002a0 2e df 20 3e bc 41 94 3d c3 17 dd 3c a9 a9 21 3e
       0.15710136 0.072391 0.02698887 0.15787376
0002b0 88 c6 16 3e 1f d6 10 3d 1a 36 08 3e 58 bb e2 3d
       0.14724171 0.03536045 0.13301888 0.11070889
0002c0 e7 ba 8f bd 9f 82 b1 bd af 31 67 3d 6d 2d 7c bd
       -0.07018071 -0.08667492 0.056443866 -0.06156676
0002d0 11 1f 2f 3b b8 ce 00 be f0 3f fd 3d e8 aa aa bd
       0.0026721398 -0.12578857 0.12365711 -0.08333379
0002e0 47 95 9a bd bb 05 0b 3e 4b c4 cb bd 0c 87 02 3e
       -0.07548004 0.13576405 -0.09949549 0.12746829
0002f0 a8 44 c6 bd 2a b9 1c bc 3a 94 75 bd c4 b0 0a 3e
       -0.09681064 -0.009565631 -0.059955813 0.13543993
000300 6c 67 6b bd 92 6e 5e bd a7 3e a0 bd fc 41 9f bd
       -0.057471678 -0.054304667 -0.0782445 -0.077762574
000310 b2 a9 c2 bd 83 d2 0e bd 37 aa 78 bc 3d 42 1d bd
       -0.09505023 -0.03486873 -0.015177301 -0.038393248
000320 27 04 67 3d 5e 0f a5 3d dc 41 8b bd 17 cf e2 bd
       0.056400444 0.08059572 -0.06799671 -0.110746555
000330 15 69 08 3e fe c2 32 bc 35 c6 8d 3d 28 0c 56 bd
       0.13321336 -0.010910748 0.069225706 -0.052257687
000340 5f b5 b1 bd 2e 31 a7 bd ee fe 9a bd 6e 32 c8 bd
       -0.08677172 -0.08163677 -0.07568155 -0.09775244
000350 59 57 c6 bd a3 0a 95 bb f4 b6 dc 3d c5 1b 3d bd
       -0.09684629 -0.004548387 0.10777083 -0.04616906
000360 b5 c8 ab bd 8e 14 b5 bd d4 8e 88 3b dd 19 8e bd
       -0.08387891 -0.08841811 0.004167417 -0.06938527
000370 d2 16 23 3d ea f6 74 bd 4b 43 9c bd ce c7 31 bd
       0.039816685 -0.059805788 -0.076300226 -0.04340344
000380 b2 20 b0 bd ed ed 05 3e 78 fb 15 3e bb 1a 24 3e
       -0.08599986 0.13079043 0.14646709 0.16025822
000390 4c e1 18 3e 88 d1 85 bd 2d 47 f3 3d 48 f6 54 3d
       0.14929694 -0.065341055 0.1187881 0.051992685
0003a0 96 6e af bd ab 1a 28 bd 12 19 81 bd 75 e4 55 bd
       -0.085660145 -0.041041058 -0.0630361 -0.052219827
0003b0 7b fb 1a 3e f2 56 7b bd a2 a8 81 bd cd d8 f0 bc
       0.15134995 -0.061362214 -0.06330992 -0.029400254
0003c0 af 66 b5 bd db a5 f5 bc 29 38 33 bd 34 03 e4 3d
       -0.08857476 -0.029986313 -0.04375473 0.111334234
0003d0 e4 5a 89 bd 48 50 09 3e a6 b9 34 3e cb c0 a6 3d
       -0.06706789 0.13409531 0.17648944 0.08142241
0003e0 4c bc 65 bd c2 12 8a bd 02 0f 8f bd b6 e2 41 bd
       -0.056087777 -0.06741859 -0.069852844 -0.04733535
0003f0 c0 83 8f bd 3b 9b cf 3c 34 e7 9d 3d 11 3d 26 bc
       -0.07007551 0.025342574 0.07710114 -0.010146395

bias f4 [9]
000000 c5 01 65 36 67 2a a9 36 f4 c2 33 35 1f 38 8c b5
       3.412469e-06 5.0415288e-06 6.696639e-07 -1.0447146e-06
000010 f1 2e 21 38 db 36 81 b6 f5 20 e1 37 a8 2e 76 37
       3.842911e-05 -3.8508856e-06 2.6837437e-05 1.4673606e-05
000020 e0 56 42 b7
       -1.1583528e-05
